…
│ (Reshape)           │ 1)                │            │                   │
├─────────────────────┼───────────────────┼────────────┼───────────────────┤
│ conv2d_5 (Conv2D)   │ (512, 312, 32,    │        272 │ reshape_10[0][0]  │
│                     │ 16)               │            │                   │
├─────────────────────┼───────────────────┼────────────┼───────────────────┤
│ leaky_re_lu_45      │ (512, 312, 32,    │          0 │ conv2d_5[0][0]    │
│ (LeakyReLU)         │ 16)               │            │                   │
├─────────────────────┼───────────────────┼────────────┼───────────────────┤
│ reshape_11          │ (512, 312, 512)   │          0 │ leaky_re_lu_45[0… │
│ (Reshape)           │                   │            │                   │
├─────────────────────┼───────────────────┼────────────┼───────────────────┤
│ conv1d_40 (Conv1D)  │ (512, 312, 32)    │     81,952 │ reshape_11[0][0]  │
├─────────────────────┼───────────────────┼────────────┼───────────────────┤
│ batch_normalizatio… │ (512, 312, 32)    │        128 │ conv1d_40[0][0]   │
│ (BatchNormalizatio… │                   │            │                   │
├─────────────────────┼───────────────────┼────────────┼───────────────────┤
│ leaky_re_lu_46      │ (512, 312, 32)    │          0 │ batch_normalizat… │
│ (LeakyReLU)         │                   │            │                   │
├─────────────────────┼───────────────────┼────────────┼───────────────────┤
│ spatial_dropout1d_… │ (512, 312, 32)    │          0 │ leaky_re_lu_46[0… │
│ (SpatialDropout1D)  │                   │            │                   │
├─────────────────────┼───────────────────┼────────────┼───────────────────┤
│ conv1d_41 (Conv1D)  │ (512, 312, 64)    │     10,304 │ spatial_dropout1… │
├─────────────────────┼───────────────────┼────────────┼───────────────────┤
│ batch_normalizatio… │ (512, 312, 64)    │        256 │ conv1d_41[0][0]   │
│ (BatchNormalizatio… │                   │            │                   │
├─────────────────────┼───────────────────┼────────────┼───────────────────┤
│ leaky_re_lu_47      │ (512, 312, 64)    │          0 │ batch_normalizat… │
│ (LeakyReLU)         │                   │            │                   │
├─────────────────────┼───────────────────┼────────────┼───────────────────┤
│ max_pooling1d_35    │ (512, 156, 64)    │          0 │ leaky_re_lu_47[0… │
│ (MaxPooling1D)      │                   │            │                   │
├─────────────────────┼───────────────────┼────────────┼───────────────────┤
│ spatial_dropout1d_… │ (512, 156, 64)    │          0 │ max_pooling1d_35… │
│ (SpatialDropout1D)  │                   │            │                   │
├─────────────────────┼───────────────────┼────────────┼───────────────────┤
│ lambda_30 (Lambda)  │ (512, 26, 64)     │          0 │ spatial_dropout1… │
├─────────────────────┼───────────────────┼────────────┼───────────────────┤
│ lambda_31 (Lambda)  │ (512, 26, 64)     │          0 │ spatial_dropout1… │
├─────────────────────┼───────────────────┼────────────┼───────────────────┤
│ lambda_32 (Lambda)  │ (512, 26, 64)     │          0 │ spatial_dropout1… │
├─────────────────────┼───────────────────┼────────────┼───────────────────┤
│ lambda_33 (Lambda)  │ (512, 26, 64)     │          0 │ spatial_dropout1… │
├─────────────────────┼───────────────────┼────────────┼───────────────────┤
│ lambda_34 (Lambda)  │ (512, 26, 64)     │          0 │ spatial_dropout1… │
├─────────────────────┼───────────────────┼────────────┼───────────────────┤
│ lambda_35 (Lambda)  │ (512, 26, 64)     │          0 │ spatial_dropout1… │
├─────────────────────┼───────────────────┼────────────┼───────────────────┤
│ conv1d_42 (Conv1D)  │ (512, 26, 128)    │     41,088 │ lambda_30[0][0]   │
├─────────────────────┼───────────────────┼────────────┼───────────────────┤
│ conv1d_43 (Conv1D)  │ (512, 26, 128)    │     41,088 │ lambda_31[0][0]   │
├─────────────────────┼───────────────────┼────────────┼───────────────────┤
│ conv1d_44 (Conv1D)  │ (512, 26, 128)    │     41,088 │ lambda_32[0][0]   │
├─────────────────────┼───────────────────┼────────────┼───────────────────┤
│ conv1d_45 (Conv1D)  │ (512, 26, 128)    │     41,088 │ lambda_33[0][0]   │
├─────────────────────┼───────────────────┼────────────┼───────────────────┤
│ conv1d_46 (Conv1D)  │ (512, 26, 128)    │     41,088 │ lambda_34[0][0]   │
├─────────────────────┼───────────────────┼────────────┼───────────────────┤
│ conv1d_47 (Conv1D)  │ (512, 26, 128)    │     41,088 │ lambda_35[0][0]   │
├─────────────────────┼───────────────────┼────────────┼───────────────────┤
│ batch_normalizatio… │ (512, 26, 128)    │        512 │ conv1d_42[0][0]   │
│ (BatchNormalizatio… │                   │            │                   │
├─────────────────────┼───────────────────┼────────────┼───────────────────┤
│ batch_normalizatio… │ (512, 26, 128)    │        512 │ conv1d_43[0][0]   │
│ (BatchNormalizatio… │                   │            │                   │
├─────────────────────┼───────────────────┼────────────┼───────────────────┤
│ batch_normalizatio… │ (512, 26, 128)    │        512 │ conv1d_44[0][0]   │
│ (BatchNormalizatio… │                   │            │                   │
├─────────────────────┼───────────────────┼────────────┼───────────────────┤
│ batch_normalizatio… │ (512, 26, 128)    │        512 │ conv1d_45[0][0]   │
│ (BatchNormalizatio… │                   │            │                   │
├─────────────────────┼───────────────────┼────────────┼───────────────────┤
│ batch_normalizatio… │ (512, 26, 128)    │        512 │ conv1d_46[0][0]   │
│ (BatchNormalizatio… │                   │            │                   │
├─────────────────────┼───────────────────┼────────────┼───────────────────┤
│ batch_normalizatio… │ (512, 26, 128)    │        512 │ conv1d_47[0][0]   │
│ (BatchNormalizatio… │                   │            │                   │
├─────────────────────┼───────────────────┼────────────┼───────────────────┤
│ leaky_re_lu_48      │ (512, 26, 128)    │          0 │ batch_normalizat… │
│ (LeakyReLU)         │                   │            │                   │
├─────────────────────┼───────────────────┼────────────┼───────────────────┤
│ leaky_re_lu_49      │ (512, 26, 128)    │          0 │ batch_normalizat… │
│ (LeakyReLU)         │                   │            │                   │
├─────────────────────┼───────────────────┼────────────┼───────────────────┤
│ leaky_re_lu_50      │ (512, 26, 128)    │          0 │ batch_normalizat… │
│ (LeakyReLU)         │                   │            │                   │
├─────────────────────┼───────────────────┼────────────┼───────────────────┤
│ leaky_re_lu_51      │ (512, 26, 128)    │          0 │ batch_normalizat… │
│ (LeakyReLU)         │                   │            │                   │
├─────────────────────┼───────────────────┼────────────┼───────────────────┤
│ leaky_re_lu_52      │ (512, 26, 128)    │          0 │ batch_normalizat… │
│ (LeakyReLU)         │                   │            │                   │
├─────────────────────┼───────────────────┼────────────┼───────────────────┤
│ leaky_re_lu_53      │ (512, 26, 128)    │          0 │ batch_normalizat… │
│ (LeakyReLU)         │                   │            │                   │
├─────────────────────┼───────────────────┼────────────┼───────────────────┤
│ max_pooling1d_36    │ (512, 6, 128)     │          0 │ leaky_re_lu_48[0… │
│ (MaxPooling1D)      │                   │            │                   │
├─────────────────────┼───────────────────┼────────────┼───────────────────┤
│ max_pooling1d_37    │ (512, 6, 128)     │          0 │ leaky_re_lu_49[0… │
│ (MaxPooling1D)      │                   │            │                   │
├─────────────────────┼───────────────────┼────────────┼───────────────────┤
│ max_pooling1d_38    │ (512, 6, 128)     │          0 │ leaky_re_lu_50[0… │
│ (MaxPooling1D)      │                   │            │                   │
├─────────────────────┼───────────────────┼────────────┼───────────────────┤
│ max_pooling1d_39    │ (512, 6, 128)     │          0 │ leaky_re_lu_51[0… │
│ (MaxPooling1D)      │                   │            │                   │
├─────────────────────┼───────────────────┼────────────┼───────────────────┤
│ max_pooling1d_40    │ (512, 6, 128)     │          0 │ leaky_re_lu_52[0… │
│ (MaxPooling1D)      │                   │            │                   │
├─────────────────────┼───────────────────┼────────────┼───────────────────┤
│ max_pooling1d_41    │ (512, 6, 128)     │          0 │ leaky_re_lu_53[0… │
│ (MaxPooling1D)      │                   │            │                   │
├─────────────────────┼───────────────────┼────────────┼───────────────────┤
│ spatial_dropout1d_… │ (512, 6, 128)     │          0 │ max_pooling1d_36… │
│ (SpatialDropout1D)  │                   │            │                   │
├─────────────────────┼───────────────────┼────────────┼───────────────────┤
│ spatial_dropout1d_… │ (512, 6, 128)     │          0 │ max_pooling1d_37… │
│ (SpatialDropout1D)  │                   │            │                   │
├─────────────────────┼───────────────────┼────────────┼───────────────────┤
│ spatial_dropout1d_… │ (512, 6, 128)     │          0 │ max_pooling1d_38… │
│ (SpatialDropout1D)  │                   │            │                   │
├─────────────────────┼───────────────────┼────────────┼───────────────────┤
│ spatial_dropout1d_… │ (512, 6, 128)     │          0 │ max_pooling1d_39… │
│ (SpatialDropout1D)  │                   │            │                   │
├─────────────────────┼───────────────────┼────────────┼───────────────────┤
│ spatial_dropout1d_… │ (512, 6, 128)     │          0 │ max_pooling1d_40… │
│ (SpatialDropout1D)  │                   │            │                   │
├─────────────────────┼───────────────────┼────────────┼───────────────────┤
│ spatial_dropout1d_… │ (512, 6, 128)     │          0 │ max_pooling1d_41… │
│ (SpatialDropout1D)  │                   │            │                   │
├─────────────────────┼───────────────────┼────────────┼───────────────────┤
│ global_max_pooling… │ (512, 128)        │          0 │ spatial_dropout1… │
│ (GlobalMaxPooling1… │                   │            │                   │
├─────────────────────┼───────────────────┼────────────┼───────────────────┤
│ global_max_pooling… │ (512, 128)        │          0 │ spatial_dropout1… │
│ (GlobalMaxPooling1… │                   │            │                   │
├─────────────────────┼───────────────────┼────────────┼───────────────────┤
│ global_max_pooling… │ (512, 128)        │          0 │ spatial_dropout1… │
│ (GlobalMaxPooling1… │                   │            │                   │
├─────────────────────┼───────────────────┼────────────┼───────────────────┤
│ global_max_pooling… │ (512, 128)        │          0 │ spatial_dropout1… │
│ (GlobalMaxPooling1… │                   │            │                   │
├─────────────────────┼───────────────────┼────────────┼───────────────────┤
│ global_max_pooling… │ (512, 128)        │          0 │ spatial_dropout1… │
│ (GlobalMaxPooling1… │                   │            │                   │
├─────────────────────┼───────────────────┼────────────┼───────────────────┤
│ global_max_pooling… │ (512, 128)        │          0 │ spatial_dropout1… │
│ (GlobalMaxPooling1… │                   │            │                   │
├─────────────────────┼───────────────────┼────────────┼───────────────────┤
│ concatenate_5       │ (512, 768)        │          0 │ global_max_pooli… │
│ (Concatenate)       │                   │            │ global_max_pooli… │
│                     │                   │            │ global_max_pooli… │
│                     │                   │            │ global_max_pooli… │
│                     │                   │            │ global_max_pooli… │
│                     │                   │            │ global_max_pooli… │
├─────────────────────┼───────────────────┼────────────┼───────────────────┤
│ dropout_5 (Dropout) │ (512, 768)        │          0 │ concatenate_5[0]… │
├─────────────────────┼───────────────────┼────────────┼───────────────────┤
│ dense_5 (Dense)     │ (512, 129)        │     99,201 │ dropout_5[0][0]   │
└─────────────────────┴───────────────────┴────────────┴───────────────────┘
 Total params: 441,713 (1.69 MB)
 Trainable params: 439,985 (1.68 MB)
 Non-trainable params: 1,728 (6.75 KB)
