…
│                     │ 1)                │            │                   │
├─────────────────────┼───────────────────┼────────────┼───────────────────┤
│ conv2d_1 (Conv2D)   │ (256, 296, 32,    │        272 │ reshape_2[0][0]   │
│                     │ 16)               │            │                   │
├─────────────────────┼───────────────────┼────────────┼───────────────────┤
│ leaky_re_lu_9       │ (256, 296, 32,    │          0 │ conv2d_1[0][0]    │
│ (LeakyReLU)         │ 16)               │            │                   │
├─────────────────────┼───────────────────┼────────────┼───────────────────┤
│ reshape_3 (Reshape) │ (256, 296, 512)   │          0 │ leaky_re_lu_9[0]… │
├─────────────────────┼───────────────────┼────────────┼───────────────────┤
│ conv1d_8 (Conv1D)   │ (256, 296, 32)    │    114,720 │ reshape_3[0][0]   │
├─────────────────────┼───────────────────┼────────────┼───────────────────┤
│ batch_normalizatio… │ (256, 296, 32)    │        128 │ conv1d_8[0][0]    │
│ (BatchNormalizatio… │                   │            │                   │
├─────────────────────┼───────────────────┼────────────┼───────────────────┤
│ leaky_re_lu_10      │ (256, 296, 32)    │          0 │ batch_normalizat… │
│ (LeakyReLU)         │                   │            │                   │
├─────────────────────┼───────────────────┼────────────┼───────────────────┤
│ spatial_dropout1d_8 │ (256, 296, 32)    │          0 │ leaky_re_lu_10[0… │
│ (SpatialDropout1D)  │                   │            │                   │
├─────────────────────┼───────────────────┼────────────┼───────────────────┤
│ conv1d_9 (Conv1D)   │ (256, 296, 64)    │     14,400 │ spatial_dropout1… │
├─────────────────────┼───────────────────┼────────────┼───────────────────┤
│ batch_normalizatio… │ (256, 296, 64)    │        256 │ conv1d_9[0][0]    │
│ (BatchNormalizatio… │                   │            │                   │
├─────────────────────┼───────────────────┼────────────┼───────────────────┤
│ leaky_re_lu_11      │ (256, 296, 64)    │          0 │ batch_normalizat… │
│ (LeakyReLU)         │                   │            │                   │
├─────────────────────┼───────────────────┼────────────┼───────────────────┤
│ max_pooling1d_7     │ (256, 148, 64)    │          0 │ leaky_re_lu_11[0… │
│ (MaxPooling1D)      │                   │            │                   │
├─────────────────────┼───────────────────┼────────────┼───────────────────┤
│ spatial_dropout1d_9 │ (256, 148, 64)    │          0 │ max_pooling1d_7[… │
│ (SpatialDropout1D)  │                   │            │                   │
├─────────────────────┼───────────────────┼────────────┼───────────────────┤
│ lambda_6 (Lambda)   │ (256, 20, 64)     │          0 │ spatial_dropout1… │
├─────────────────────┼───────────────────┼────────────┼───────────────────┤
│ lambda_7 (Lambda)   │ (256, 19, 64)     │          0 │ spatial_dropout1… │
├─────────────────────┼───────────────────┼────────────┼───────────────────┤
│ lambda_8 (Lambda)   │ (256, 19, 64)     │          0 │ spatial_dropout1… │
├─────────────────────┼───────────────────┼────────────┼───────────────────┤
│ lambda_9 (Lambda)   │ (256, 15, 64)     │          0 │ spatial_dropout1… │
├─────────────────────┼───────────────────┼────────────┼───────────────────┤
│ lambda_10 (Lambda)  │ (256, 19, 64)     │          0 │ spatial_dropout1… │
├─────────────────────┼───────────────────┼────────────┼───────────────────┤
│ lambda_11 (Lambda)  │ (256, 50, 64)     │          0 │ spatial_dropout1… │
├─────────────────────┼───────────────────┼────────────┼───────────────────┤
│ conv1d_10 (Conv1D)  │ (256, 20, 128)    │     57,472 │ lambda_6[0][0]    │
├─────────────────────┼───────────────────┼────────────┼───────────────────┤
│ conv1d_11 (Conv1D)  │ (256, 19, 128)    │     57,472 │ lambda_7[0][0]    │
├─────────────────────┼───────────────────┼────────────┼───────────────────┤
│ conv1d_12 (Conv1D)  │ (256, 19, 128)    │     57,472 │ lambda_8[0][0]    │
├─────────────────────┼───────────────────┼────────────┼───────────────────┤
│ conv1d_13 (Conv1D)  │ (256, 15, 128)    │     57,472 │ lambda_9[0][0]    │
├─────────────────────┼───────────────────┼────────────┼───────────────────┤
│ conv1d_14 (Conv1D)  │ (256, 19, 128)    │     57,472 │ lambda_10[0][0]   │
├─────────────────────┼───────────────────┼────────────┼───────────────────┤
│ conv1d_15 (Conv1D)  │ (256, 50, 128)    │     57,472 │ lambda_11[0][0]   │
├─────────────────────┼───────────────────┼────────────┼───────────────────┤
│ batch_normalizatio… │ (256, 20, 128)    │        512 │ conv1d_10[0][0]   │
│ (BatchNormalizatio… │                   │            │                   │
├─────────────────────┼───────────────────┼────────────┼───────────────────┤
│ batch_normalizatio… │ (256, 19, 128)    │        512 │ conv1d_11[0][0]   │
│ (BatchNormalizatio… │                   │            │                   │
├─────────────────────┼───────────────────┼────────────┼───────────────────┤
│ batch_normalizatio… │ (256, 19, 128)    │        512 │ conv1d_12[0][0]   │
│ (BatchNormalizatio… │                   │            │                   │
├─────────────────────┼───────────────────┼────────────┼───────────────────┤
│ batch_normalizatio… │ (256, 15, 128)    │        512 │ conv1d_13[0][0]   │
│ (BatchNormalizatio… │                   │            │                   │
├─────────────────────┼───────────────────┼────────────┼───────────────────┤
│ batch_normalizatio… │ (256, 19, 128)    │        512 │ conv1d_14[0][0]   │
│ (BatchNormalizatio… │                   │            │                   │
├─────────────────────┼───────────────────┼────────────┼───────────────────┤
│ batch_normalizatio… │ (256, 50, 128)    │        512 │ conv1d_15[0][0]   │
│ (BatchNormalizatio… │                   │            │                   │
├─────────────────────┼───────────────────┼────────────┼───────────────────┤
│ leaky_re_lu_12      │ (256, 20, 128)    │          0 │ batch_normalizat… │
│ (LeakyReLU)         │                   │            │                   │
├─────────────────────┼───────────────────┼────────────┼───────────────────┤
│ leaky_re_lu_13      │ (256, 19, 128)    │          0 │ batch_normalizat… │
│ (LeakyReLU)         │                   │            │                   │
├─────────────────────┼───────────────────┼────────────┼───────────────────┤
│ leaky_re_lu_14      │ (256, 19, 128)    │          0 │ batch_normalizat… │
│ (LeakyReLU)         │                   │            │                   │
├─────────────────────┼───────────────────┼────────────┼───────────────────┤
│ leaky_re_lu_15      │ (256, 15, 128)    │          0 │ batch_normalizat… │
│ (LeakyReLU)         │                   │            │                   │
├─────────────────────┼───────────────────┼────────────┼───────────────────┤
│ leaky_re_lu_16      │ (256, 19, 128)    │          0 │ batch_normalizat… │
│ (LeakyReLU)         │                   │            │                   │
├─────────────────────┼───────────────────┼────────────┼───────────────────┤
│ leaky_re_lu_17      │ (256, 50, 128)    │          0 │ batch_normalizat… │
│ (LeakyReLU)         │                   │            │                   │
├─────────────────────┼───────────────────┼────────────┼───────────────────┤
│ max_pooling1d_8     │ (256, 5, 128)     │          0 │ leaky_re_lu_12[0… │
│ (MaxPooling1D)      │                   │            │                   │
├─────────────────────┼───────────────────┼────────────┼───────────────────┤
│ max_pooling1d_9     │ (256, 4, 128)     │          0 │ leaky_re_lu_13[0… │
│ (MaxPooling1D)      │                   │            │                   │
├─────────────────────┼───────────────────┼────────────┼───────────────────┤
│ max_pooling1d_10    │ (256, 4, 128)     │          0 │ leaky_re_lu_14[0… │
│ (MaxPooling1D)      │                   │            │                   │
├─────────────────────┼───────────────────┼────────────┼───────────────────┤
│ max_pooling1d_11    │ (256, 3, 128)     │          0 │ leaky_re_lu_15[0… │
│ (MaxPooling1D)      │                   │            │                   │
├─────────────────────┼───────────────────┼────────────┼───────────────────┤
│ max_pooling1d_12    │ (256, 4, 128)     │          0 │ leaky_re_lu_16[0… │
│ (MaxPooling1D)      │                   │            │                   │
├─────────────────────┼───────────────────┼────────────┼───────────────────┤
│ max_pooling1d_13    │ (256, 12, 128)    │          0 │ leaky_re_lu_17[0… │
│ (MaxPooling1D)      │                   │            │                   │
├─────────────────────┼───────────────────┼────────────┼───────────────────┤
│ spatial_dropout1d_… │ (256, 5, 128)     │          0 │ max_pooling1d_8[… │
│ (SpatialDropout1D)  │                   │            │                   │
├─────────────────────┼───────────────────┼────────────┼───────────────────┤
│ spatial_dropout1d_… │ (256, 4, 128)     │          0 │ max_pooling1d_9[… │
│ (SpatialDropout1D)  │                   │            │                   │
├─────────────────────┼───────────────────┼────────────┼───────────────────┤
│ spatial_dropout1d_… │ (256, 4, 128)     │          0 │ max_pooling1d_10… │
│ (SpatialDropout1D)  │                   │            │                   │
├─────────────────────┼───────────────────┼────────────┼───────────────────┤
│ spatial_dropout1d_… │ (256, 3, 128)     │          0 │ max_pooling1d_11… │
│ (SpatialDropout1D)  │                   │            │                   │
├─────────────────────┼───────────────────┼────────────┼───────────────────┤
│ spatial_dropout1d_… │ (256, 4, 128)     │          0 │ max_pooling1d_12… │
│ (SpatialDropout1D)  │                   │            │                   │
├─────────────────────┼───────────────────┼────────────┼───────────────────┤
│ spatial_dropout1d_… │ (256, 12, 128)    │          0 │ max_pooling1d_13… │
│ (SpatialDropout1D)  │                   │            │                   │
├─────────────────────┼───────────────────┼────────────┼───────────────────┤
│ global_max_pooling… │ (256, 128)        │          0 │ spatial_dropout1… │
│ (GlobalMaxPooling1… │                   │            │                   │
├─────────────────────┼───────────────────┼────────────┼───────────────────┤
│ global_max_pooling… │ (256, 128)        │          0 │ spatial_dropout1… │
│ (GlobalMaxPooling1… │                   │            │                   │
├─────────────────────┼───────────────────┼────────────┼───────────────────┤
│ global_max_pooling… │ (256, 128)        │          0 │ spatial_dropout1… │
│ (GlobalMaxPooling1… │                   │            │                   │
├─────────────────────┼───────────────────┼────────────┼───────────────────┤
│ global_max_pooling… │ (256, 128)        │          0 │ spatial_dropout1… │
│ (GlobalMaxPooling1… │                   │            │                   │
├─────────────────────┼───────────────────┼────────────┼───────────────────┤
│ global_max_pooling… │ (256, 128)        │          0 │ spatial_dropout1… │
│ (GlobalMaxPooling1… │                   │            │                   │
├─────────────────────┼───────────────────┼────────────┼───────────────────┤
│ global_max_pooling… │ (256, 128)        │          0 │ spatial_dropout1… │
│ (GlobalMaxPooling1… │                   │            │                   │
├─────────────────────┼───────────────────┼────────────┼───────────────────┤
│ concatenate_1       │ (256, 768)        │          0 │ global_max_pooli… │
│ (Concatenate)       │                   │            │ global_max_pooli… │
│                     │                   │            │ global_max_pooli… │
│                     │                   │            │ global_max_pooli… │
│                     │                   │            │ global_max_pooli… │
│                     │                   │            │ global_max_pooli… │
├─────────────────────┼───────────────────┼────────────┼───────────────────┤
│ dropout_1 (Dropout) │ (256, 768)        │          0 │ concatenate_1[0]… │
├─────────────────────┼───────────────────┼────────────┼───────────────────┤
│ dense_1 (Dense)     │ (256, 129)        │     99,201 │ dropout_1[0][0]   │
└─────────────────────┴───────────────────┴────────────┴───────────────────┘
 Total params: 576,881 (2.20 MB)
 Trainable params: 575,153 (2.19 MB)
 Non-trainable params: 1,728 (6.75 KB)
