…
│ (BatchNormalizatio… │ 16)               │            │                   │
├─────────────────────┼───────────────────┼────────────┼───────────────────┤
│ leaky_re_lu         │ (512, 148, 32,    │          0 │ batch_normalizat… │
│ (LeakyReLU)         │ 16)               │            │                   │
├─────────────────────┼───────────────────┼────────────┼───────────────────┤
│ spatial_dropout2d   │ (512, 148, 32,    │          0 │ leaky_re_lu[0][0] │
│ (SpatialDropout2D)  │ 16)               │            │                   │
├─────────────────────┼───────────────────┼────────────┼───────────────────┤
│ reshape_1 (Reshape) │ (512, 148, 512)   │          0 │ spatial_dropout2… │
├─────────────────────┼───────────────────┼────────────┼───────────────────┤
│ conv1d (Conv1D)     │ (512, 148, 32)    │    114,720 │ reshape_1[0][0]   │
├─────────────────────┼───────────────────┼────────────┼───────────────────┤
│ batch_normalizatio… │ (512, 148, 32)    │        128 │ conv1d[0][0]      │
│ (BatchNormalizatio… │                   │            │                   │
├─────────────────────┼───────────────────┼────────────┼───────────────────┤
│ leaky_re_lu_1       │ (512, 148, 32)    │          0 │ batch_normalizat… │
│ (LeakyReLU)         │                   │            │                   │
├─────────────────────┼───────────────────┼────────────┼───────────────────┤
│ spatial_dropout1d   │ (512, 148, 32)    │          0 │ leaky_re_lu_1[0]… │
│ (SpatialDropout1D)  │                   │            │                   │
├─────────────────────┼───────────────────┼────────────┼───────────────────┤
│ conv1d_1 (Conv1D)   │ (512, 148, 64)    │     14,400 │ spatial_dropout1… │
├─────────────────────┼───────────────────┼────────────┼───────────────────┤
│ batch_normalizatio… │ (512, 148, 64)    │        256 │ conv1d_1[0][0]    │
│ (BatchNormalizatio… │                   │            │                   │
├─────────────────────┼───────────────────┼────────────┼───────────────────┤
│ leaky_re_lu_2       │ (512, 148, 64)    │          0 │ batch_normalizat… │
│ (LeakyReLU)         │                   │            │                   │
├─────────────────────┼───────────────────┼────────────┼───────────────────┤
│ max_pooling1d       │ (512, 74, 64)     │          0 │ leaky_re_lu_2[0]… │
│ (MaxPooling1D)      │                   │            │                   │
├─────────────────────┼───────────────────┼────────────┼───────────────────┤
│ spatial_dropout1d_1 │ (512, 74, 64)     │          0 │ max_pooling1d[0]… │
│ (SpatialDropout1D)  │                   │            │                   │
├─────────────────────┼───────────────────┼────────────┼───────────────────┤
│ lambda (Lambda)     │ (512, 26, 64)     │          0 │ spatial_dropout1… │
├─────────────────────┼───────────────────┼────────────┼───────────────────┤
│ lambda_1 (Lambda)   │ (512, 25, 64)     │          0 │ spatial_dropout1… │
├─────────────────────┼───────────────────┼────────────┼───────────────────┤
│ lambda_2 (Lambda)   │ (512, 25, 64)     │          0 │ spatial_dropout1… │
├─────────────────────┼───────────────────┼────────────┼───────────────────┤
│ lambda_3 (Lambda)   │ (512, 25, 64)     │          0 │ spatial_dropout1… │
├─────────────────────┼───────────────────┼────────────┼───────────────────┤
│ lambda_4 (Lambda)   │ (512, 25, 64)     │          0 │ spatial_dropout1… │
├─────────────────────┼───────────────────┼────────────┼───────────────────┤
│ lambda_5 (Lambda)   │ (512, 24, 64)     │          0 │ spatial_dropout1… │
├─────────────────────┼───────────────────┼────────────┼───────────────────┤
│ conv1d_2 (Conv1D)   │ (512, 26, 128)    │     57,472 │ lambda[0][0]      │
├─────────────────────┼───────────────────┼────────────┼───────────────────┤
│ conv1d_4 (Conv1D)   │ (512, 25, 128)    │     57,472 │ lambda_1[0][0]    │
├─────────────────────┼───────────────────┼────────────┼───────────────────┤
│ conv1d_6 (Conv1D)   │ (512, 25, 128)    │     57,472 │ lambda_2[0][0]    │
├─────────────────────┼───────────────────┼────────────┼───────────────────┤
│ conv1d_8 (Conv1D)   │ (512, 25, 128)    │     57,472 │ lambda_3[0][0]    │
├─────────────────────┼───────────────────┼────────────┼───────────────────┤
│ conv1d_10 (Conv1D)  │ (512, 25, 128)    │     57,472 │ lambda_4[0][0]    │
├─────────────────────┼───────────────────┼────────────┼───────────────────┤
│ conv1d_12 (Conv1D)  │ (512, 24, 128)    │     57,472 │ lambda_5[0][0]    │
├─────────────────────┼───────────────────┼────────────┼───────────────────┤
│ batch_normalizatio… │ (512, 26, 128)    │        512 │ conv1d_2[0][0]    │
│ (BatchNormalizatio… │                   │            │                   │
├─────────────────────┼───────────────────┼────────────┼───────────────────┤
│ batch_normalizatio… │ (512, 25, 128)    │        512 │ conv1d_4[0][0]    │
│ (BatchNormalizatio… │                   │            │                   │
├─────────────────────┼───────────────────┼────────────┼───────────────────┤
│ batch_normalizatio… │ (512, 25, 128)    │        512 │ conv1d_6[0][0]    │
│ (BatchNormalizatio… │                   │            │                   │
├─────────────────────┼───────────────────┼────────────┼───────────────────┤
│ batch_normalizatio… │ (512, 25, 128)    │        512 │ conv1d_8[0][0]    │
│ (BatchNormalizatio… │                   │            │                   │
├─────────────────────┼───────────────────┼────────────┼───────────────────┤
│ batch_normalizatio… │ (512, 25, 128)    │        512 │ conv1d_10[0][0]   │
│ (BatchNormalizatio… │                   │            │                   │
├─────────────────────┼───────────────────┼────────────┼───────────────────┤
│ batch_normalizatio… │ (512, 24, 128)    │        512 │ conv1d_12[0][0]   │
│ (BatchNormalizatio… │                   │            │                   │
├─────────────────────┼───────────────────┼────────────┼───────────────────┤
│ leaky_re_lu_3       │ (512, 26, 128)    │          0 │ batch_normalizat… │
│ (LeakyReLU)         │                   │            │                   │
├─────────────────────┼───────────────────┼────────────┼───────────────────┤
│ leaky_re_lu_5       │ (512, 25, 128)    │          0 │ batch_normalizat… │
│ (LeakyReLU)         │                   │            │                   │
├─────────────────────┼───────────────────┼────────────┼───────────────────┤
│ leaky_re_lu_7       │ (512, 25, 128)    │          0 │ batch_normalizat… │
│ (LeakyReLU)         │                   │            │                   │
├─────────────────────┼───────────────────┼────────────┼───────────────────┤
│ leaky_re_lu_9       │ (512, 25, 128)    │          0 │ batch_normalizat… │
│ (LeakyReLU)         │                   │            │                   │
├─────────────────────┼───────────────────┼────────────┼───────────────────┤
│ leaky_re_lu_11      │ (512, 25, 128)    │          0 │ batch_normalizat… │
│ (LeakyReLU)         │                   │            │                   │
├─────────────────────┼───────────────────┼────────────┼───────────────────┤
│ leaky_re_lu_13      │ (512, 24, 128)    │          0 │ batch_normalizat… │
│ (LeakyReLU)         │                   │            │                   │
├─────────────────────┼───────────────────┼────────────┼───────────────────┤
│ max_pooling1d_1     │ (512, 6, 128)     │          0 │ leaky_re_lu_3[0]… │
│ (MaxPooling1D)      │                   │            │                   │
├─────────────────────┼───────────────────┼────────────┼───────────────────┤
│ max_pooling1d_2     │ (512, 6, 128)     │          0 │ leaky_re_lu_5[0]… │
│ (MaxPooling1D)      │                   │            │                   │
├─────────────────────┼───────────────────┼────────────┼───────────────────┤
│ max_pooling1d_3     │ (512, 6, 128)     │          0 │ leaky_re_lu_7[0]… │
│ (MaxPooling1D)      │                   │            │                   │
├─────────────────────┼───────────────────┼────────────┼───────────────────┤
│ max_pooling1d_4     │ (512, 6, 128)     │          0 │ leaky_re_lu_9[0]… │
│ (MaxPooling1D)      │                   │            │                   │
├─────────────────────┼───────────────────┼────────────┼───────────────────┤
│ max_pooling1d_5     │ (512, 6, 128)     │          0 │ leaky_re_lu_11[0… │
│ (MaxPooling1D)      │                   │            │                   │
├─────────────────────┼───────────────────┼────────────┼───────────────────┤
│ max_pooling1d_6     │ (512, 6, 128)     │          0 │ leaky_re_lu_13[0… │
│ (MaxPooling1D)      │                   │            │                   │
├─────────────────────┼───────────────────┼────────────┼───────────────────┤
│ spatial_dropout1d_2 │ (512, 6, 128)     │          0 │ max_pooling1d_1[… │
│ (SpatialDropout1D)  │                   │            │                   │
├─────────────────────┼───────────────────┼────────────┼───────────────────┤
│ spatial_dropout1d_3 │ (512, 6, 128)     │          0 │ max_pooling1d_2[… │
│ (SpatialDropout1D)  │                   │            │                   │
├─────────────────────┼───────────────────┼────────────┼───────────────────┤
│ spatial_dropout1d_4 │ (512, 6, 128)     │          0 │ max_pooling1d_3[… │
│ (SpatialDropout1D)  │                   │            │                   │
├─────────────────────┼───────────────────┼────────────┼───────────────────┤
│ spatial_dropout1d_5 │ (512, 6, 128)     │          0 │ max_pooling1d_4[… │
│ (SpatialDropout1D)  │                   │            │                   │
├─────────────────────┼───────────────────┼────────────┼───────────────────┤
│ spatial_dropout1d_6 │ (512, 6, 128)     │          0 │ max_pooling1d_5[… │
│ (SpatialDropout1D)  │                   │            │                   │
├─────────────────────┼───────────────────┼────────────┼───────────────────┤
│ spatial_dropout1d_7 │ (512, 6, 128)     │          0 │ max_pooling1d_6[… │
│ (SpatialDropout1D)  │                   │            │                   │
├─────────────────────┼───────────────────┼────────────┼───────────────────┤
│ conv1d_3 (Conv1D)   │ (512, 6, 256)     │    229,632 │ spatial_dropout1… │
├─────────────────────┼───────────────────┼────────────┼───────────────────┤
│ conv1d_5 (Conv1D)   │ (512, 6, 256)     │    229,632 │ spatial_dropout1… │
├─────────────────────┼───────────────────┼────────────┼───────────────────┤
│ conv1d_7 (Conv1D)   │ (512, 6, 256)     │    229,632 │ spatial_dropout1… │
├─────────────────────┼───────────────────┼────────────┼───────────────────┤
│ conv1d_9 (Conv1D)   │ (512, 6, 256)     │    229,632 │ spatial_dropout1… │
├─────────────────────┼───────────────────┼────────────┼───────────────────┤
│ conv1d_11 (Conv1D)  │ (512, 6, 256)     │    229,632 │ spatial_dropout1… │
├─────────────────────┼───────────────────┼────────────┼───────────────────┤
│ conv1d_13 (Conv1D)  │ (512, 6, 256)     │    229,632 │ spatial_dropout1… │
├─────────────────────┼───────────────────┼────────────┼───────────────────┤
│ batch_normalizatio… │ (512, 6, 256)     │      1,024 │ conv1d_3[0][0]    │
│ (BatchNormalizatio… │                   │            │                   │
├─────────────────────┼───────────────────┼────────────┼───────────────────┤
│ batch_normalizatio… │ (512, 6, 256)     │      1,024 │ conv1d_5[0][0]    │
│ (BatchNormalizatio… │                   │            │                   │
├─────────────────────┼───────────────────┼────────────┼───────────────────┤
│ batch_normalizatio… │ (512, 6, 256)     │      1,024 │ conv1d_7[0][0]    │
│ (BatchNormalizatio… │                   │            │                   │
├─────────────────────┼───────────────────┼────────────┼───────────────────┤
│ batch_normalizatio… │ (512, 6, 256)     │      1,024 │ conv1d_9[0][0]    │
│ (BatchNormalizatio… │                   │            │                   │
├─────────────────────┼───────────────────┼────────────┼───────────────────┤
│ batch_normalizatio… │ (512, 6, 256)     │      1,024 │ conv1d_11[0][0]   │
│ (BatchNormalizatio… │                   │            │                   │
├─────────────────────┼───────────────────┼────────────┼───────────────────┤
│ batch_normalizatio… │ (512, 6, 256)     │      1,024 │ conv1d_13[0][0]   │
│ (BatchNormalizatio… │                   │            │                   │
├─────────────────────┼───────────────────┼────────────┼───────────────────┤
│ leaky_re_lu_4       │ (512, 6, 256)     │          0 │ batch_normalizat… │
│ (LeakyReLU)         │                   │            │                   │
├─────────────────────┼───────────────────┼────────────┼───────────────────┤
│ leaky_re_lu_6       │ (512, 6, 256)     │          0 │ batch_normalizat… │
│ (LeakyReLU)         │                   │            │                   │
├─────────────────────┼───────────────────┼────────────┼───────────────────┤
│ leaky_re_lu_8       │ (512, 6, 256)     │          0 │ batch_normalizat… │
│ (LeakyReLU)         │                   │            │                   │
├─────────────────────┼───────────────────┼────────────┼───────────────────┤
│ leaky_re_lu_10      │ (512, 6, 256)     │          0 │ batch_normalizat… │
│ (LeakyReLU)         │                   │            │                   │
├─────────────────────┼───────────────────┼────────────┼───────────────────┤
│ leaky_re_lu_12      │ (512, 6, 256)     │          0 │ batch_normalizat… │
│ (LeakyReLU)         │                   │            │                   │
├─────────────────────┼───────────────────┼────────────┼───────────────────┤
│ leaky_re_lu_14      │ (512, 6, 256)     │          0 │ batch_normalizat… │
│ (LeakyReLU)         │                   │            │                   │
├─────────────────────┼───────────────────┼────────────┼───────────────────┤
│ global_average_poo… │ (512, 256)        │          0 │ leaky_re_lu_4[0]… │
│ (GlobalAveragePool… │                   │            │                   │
├─────────────────────┼───────────────────┼────────────┼───────────────────┤
│ global_average_poo… │ (512, 256)        │          0 │ leaky_re_lu_6[0]… │
│ (GlobalAveragePool… │                   │            │                   │
├─────────────────────┼───────────────────┼────────────┼───────────────────┤
│ global_average_poo… │ (512, 256)        │          0 │ leaky_re_lu_8[0]… │
│ (GlobalAveragePool… │                   │            │                   │
├─────────────────────┼───────────────────┼────────────┼───────────────────┤
│ global_average_poo… │ (512, 256)        │          0 │ leaky_re_lu_10[0… │
│ (GlobalAveragePool… │                   │            │                   │
├─────────────────────┼───────────────────┼────────────┼───────────────────┤
│ global_average_poo… │ (512, 256)        │          0 │ leaky_re_lu_12[0… │
│ (GlobalAveragePool… │                   │            │                   │
├─────────────────────┼───────────────────┼────────────┼───────────────────┤
│ global_average_poo… │ (512, 256)        │          0 │ leaky_re_lu_14[0… │
│ (GlobalAveragePool… │                   │            │                   │
├─────────────────────┼───────────────────┼────────────┼───────────────────┤
│ lambda_6 (Lambda)   │ (512, 6, 256)     │          0 │ global_average_p… │
│                     │                   │            │ global_average_p… │
│                     │                   │            │ global_average_p… │
│                     │                   │            │ global_average_p… │
│                     │                   │            │ global_average_p… │
│                     │                   │            │ global_average_p… │
├─────────────────────┼───────────────────┼────────────┼───────────────────┤
│ reshape_2 (Reshape) │ (512, 6, 256, 1)  │          0 │ lambda_6[0][0]    │
├─────────────────────┼───────────────────┼────────────┼───────────────────┤
│ conv2d_1 (Conv2D)   │ (512, 6, 256, 32) │        704 │ reshape_2[0][0]   │
├─────────────────────┼───────────────────┼────────────┼───────────────────┤
│ batch_normalizatio… │ (512, 6, 256, 32) │        128 │ conv2d_1[0][0]    │
│ (BatchNormalizatio… │                   │            │                   │
├─────────────────────┼───────────────────┼────────────┼───────────────────┤
│ leaky_re_lu_15      │ (512, 6, 256, 32) │          0 │ batch_normalizat… │
│ (LeakyReLU)         │                   │            │                   │
├─────────────────────┼───────────────────┼────────────┼───────────────────┤
│ spatial_dropout2d_1 │ (512, 6, 256, 32) │          0 │ leaky_re_lu_15[0… │
│ (SpatialDropout2D)  │                   │            │                   │
├─────────────────────┼───────────────────┼────────────┼───────────────────┤
│ flatten (Flatten)   │ (512, 49152)      │          0 │ spatial_dropout2… │
├─────────────────────┼───────────────────┼────────────┼───────────────────┤
│ dropout (Dropout)   │ (512, 49152)      │          0 │ flatten[0][0]     │
├─────────────────────┼───────────────────┼────────────┼───────────────────┤
│ dense (Dense)       │ (512, 44)         │  2,162,732 │ dropout[0][0]     │
└─────────────────────┴───────────────────┴────────────┴───────────────────┘
 Total params: 4,025,244 (15.36 MB)
 Trainable params: 4,020,348 (15.34 MB)
 Non-trainable params: 4,896 (19.12 KB)
