…
│                     │ 1)                │            │                   │
├─────────────────────┼───────────────────┼────────────┼───────────────────┤
│ conv2d_1 (Conv2D)   │ (512, 312, 32,    │        272 │ reshape_2[0][0]   │
│                     │ 16)               │            │                   │
├─────────────────────┼───────────────────┼────────────┼───────────────────┤
│ leaky_re_lu_9       │ (512, 312, 32,    │          0 │ conv2d_1[0][0]    │
│ (LeakyReLU)         │ 16)               │            │                   │
├─────────────────────┼───────────────────┼────────────┼───────────────────┤
│ reshape_3 (Reshape) │ (512, 312, 512)   │          0 │ leaky_re_lu_9[0]… │
├─────────────────────┼───────────────────┼────────────┼───────────────────┤
│ conv1d_8 (Conv1D)   │ (512, 312, 32)    │     81,952 │ reshape_3[0][0]   │
├─────────────────────┼───────────────────┼────────────┼───────────────────┤
│ batch_normalizatio… │ (512, 312, 32)    │        128 │ conv1d_8[0][0]    │
│ (BatchNormalizatio… │                   │            │                   │
├─────────────────────┼───────────────────┼────────────┼───────────────────┤
│ leaky_re_lu_10      │ (512, 312, 32)    │          0 │ batch_normalizat… │
│ (LeakyReLU)         │                   │            │                   │
├─────────────────────┼───────────────────┼────────────┼───────────────────┤
│ spatial_dropout1d_8 │ (512, 312, 32)    │          0 │ leaky_re_lu_10[0… │
│ (SpatialDropout1D)  │                   │            │                   │
├─────────────────────┼───────────────────┼────────────┼───────────────────┤
│ conv1d_9 (Conv1D)   │ (512, 312, 64)    │     10,304 │ spatial_dropout1… │
├─────────────────────┼───────────────────┼────────────┼───────────────────┤
│ batch_normalizatio… │ (512, 312, 64)    │        256 │ conv1d_9[0][0]    │
│ (BatchNormalizatio… │                   │            │                   │
├─────────────────────┼───────────────────┼────────────┼───────────────────┤
│ leaky_re_lu_11      │ (512, 312, 64)    │          0 │ batch_normalizat… │
│ (LeakyReLU)         │                   │            │                   │
├─────────────────────┼───────────────────┼────────────┼───────────────────┤
│ max_pooling1d_7     │ (512, 156, 64)    │          0 │ leaky_re_lu_11[0… │
│ (MaxPooling1D)      │                   │            │                   │
├─────────────────────┼───────────────────┼────────────┼───────────────────┤
│ spatial_dropout1d_9 │ (512, 156, 64)    │          0 │ max_pooling1d_7[… │
│ (SpatialDropout1D)  │                   │            │                   │
├─────────────────────┼───────────────────┼────────────┼───────────────────┤
│ lambda_6 (Lambda)   │ (512, 26, 64)     │          0 │ spatial_dropout1… │
├─────────────────────┼───────────────────┼────────────┼───────────────────┤
│ lambda_7 (Lambda)   │ (512, 26, 64)     │          0 │ spatial_dropout1… │
├─────────────────────┼───────────────────┼────────────┼───────────────────┤
│ lambda_8 (Lambda)   │ (512, 26, 64)     │          0 │ spatial_dropout1… │
├─────────────────────┼───────────────────┼────────────┼───────────────────┤
│ lambda_9 (Lambda)   │ (512, 26, 64)     │          0 │ spatial_dropout1… │
├─────────────────────┼───────────────────┼────────────┼───────────────────┤
│ lambda_10 (Lambda)  │ (512, 26, 64)     │          0 │ spatial_dropout1… │
├─────────────────────┼───────────────────┼────────────┼───────────────────┤
│ lambda_11 (Lambda)  │ (512, 26, 64)     │          0 │ spatial_dropout1… │
├─────────────────────┼───────────────────┼────────────┼───────────────────┤
│ conv1d_10 (Conv1D)  │ (512, 26, 128)    │     41,088 │ lambda_6[0][0]    │
├─────────────────────┼───────────────────┼────────────┼───────────────────┤
│ conv1d_11 (Conv1D)  │ (512, 26, 128)    │     41,088 │ lambda_7[0][0]    │
├─────────────────────┼───────────────────┼────────────┼───────────────────┤
│ conv1d_12 (Conv1D)  │ (512, 26, 128)    │     41,088 │ lambda_8[0][0]    │
├─────────────────────┼───────────────────┼────────────┼───────────────────┤
│ conv1d_13 (Conv1D)  │ (512, 26, 128)    │     41,088 │ lambda_9[0][0]    │
├─────────────────────┼───────────────────┼────────────┼───────────────────┤
│ conv1d_14 (Conv1D)  │ (512, 26, 128)    │     41,088 │ lambda_10[0][0]   │
├─────────────────────┼───────────────────┼────────────┼───────────────────┤
│ conv1d_15 (Conv1D)  │ (512, 26, 128)    │     41,088 │ lambda_11[0][0]   │
├─────────────────────┼───────────────────┼────────────┼───────────────────┤
│ batch_normalizatio… │ (512, 26, 128)    │        512 │ conv1d_10[0][0]   │
│ (BatchNormalizatio… │                   │            │                   │
├─────────────────────┼───────────────────┼────────────┼───────────────────┤
│ batch_normalizatio… │ (512, 26, 128)    │        512 │ conv1d_11[0][0]   │
│ (BatchNormalizatio… │                   │            │                   │
├─────────────────────┼───────────────────┼────────────┼───────────────────┤
│ batch_normalizatio… │ (512, 26, 128)    │        512 │ conv1d_12[0][0]   │
│ (BatchNormalizatio… │                   │            │                   │
├─────────────────────┼───────────────────┼────────────┼───────────────────┤
│ batch_normalizatio… │ (512, 26, 128)    │        512 │ conv1d_13[0][0]   │
│ (BatchNormalizatio… │                   │            │                   │
├─────────────────────┼───────────────────┼────────────┼───────────────────┤
│ batch_normalizatio… │ (512, 26, 128)    │        512 │ conv1d_14[0][0]   │
│ (BatchNormalizatio… │                   │            │                   │
├─────────────────────┼───────────────────┼────────────┼───────────────────┤
│ batch_normalizatio… │ (512, 26, 128)    │        512 │ conv1d_15[0][0]   │
│ (BatchNormalizatio… │                   │            │                   │
├─────────────────────┼───────────────────┼────────────┼───────────────────┤
│ leaky_re_lu_12      │ (512, 26, 128)    │          0 │ batch_normalizat… │
│ (LeakyReLU)         │                   │            │                   │
├─────────────────────┼───────────────────┼────────────┼───────────────────┤
│ leaky_re_lu_13      │ (512, 26, 128)    │          0 │ batch_normalizat… │
│ (LeakyReLU)         │                   │            │                   │
├─────────────────────┼───────────────────┼────────────┼───────────────────┤
│ leaky_re_lu_14      │ (512, 26, 128)    │          0 │ batch_normalizat… │
│ (LeakyReLU)         │                   │            │                   │
├─────────────────────┼───────────────────┼────────────┼───────────────────┤
│ leaky_re_lu_15      │ (512, 26, 128)    │          0 │ batch_normalizat… │
│ (LeakyReLU)         │                   │            │                   │
├─────────────────────┼───────────────────┼────────────┼───────────────────┤
│ leaky_re_lu_16      │ (512, 26, 128)    │          0 │ batch_normalizat… │
│ (LeakyReLU)         │                   │            │                   │
├─────────────────────┼───────────────────┼────────────┼───────────────────┤
│ leaky_re_lu_17      │ (512, 26, 128)    │          0 │ batch_normalizat… │
│ (LeakyReLU)         │                   │            │                   │
├─────────────────────┼───────────────────┼────────────┼───────────────────┤
│ max_pooling1d_8     │ (512, 6, 128)     │          0 │ leaky_re_lu_12[0… │
│ (MaxPooling1D)      │                   │            │                   │
├─────────────────────┼───────────────────┼────────────┼───────────────────┤
│ max_pooling1d_9     │ (512, 6, 128)     │          0 │ leaky_re_lu_13[0… │
│ (MaxPooling1D)      │                   │            │                   │
├─────────────────────┼───────────────────┼────────────┼───────────────────┤
│ max_pooling1d_10    │ (512, 6, 128)     │          0 │ leaky_re_lu_14[0… │
│ (MaxPooling1D)      │                   │            │                   │
├─────────────────────┼───────────────────┼────────────┼───────────────────┤
│ max_pooling1d_11    │ (512, 6, 128)     │          0 │ leaky_re_lu_15[0… │
│ (MaxPooling1D)      │                   │            │                   │
├─────────────────────┼───────────────────┼────────────┼───────────────────┤
│ max_pooling1d_12    │ (512, 6, 128)     │          0 │ leaky_re_lu_16[0… │
│ (MaxPooling1D)      │                   │            │                   │
├─────────────────────┼───────────────────┼────────────┼───────────────────┤
│ max_pooling1d_13    │ (512, 6, 128)     │          0 │ leaky_re_lu_17[0… │
│ (MaxPooling1D)      │                   │            │                   │
├─────────────────────┼───────────────────┼────────────┼───────────────────┤
│ spatial_dropout1d_… │ (512, 6, 128)     │          0 │ max_pooling1d_8[… │
│ (SpatialDropout1D)  │                   │            │                   │
├─────────────────────┼───────────────────┼────────────┼───────────────────┤
│ spatial_dropout1d_… │ (512, 6, 128)     │          0 │ max_pooling1d_9[… │
│ (SpatialDropout1D)  │                   │            │                   │
├─────────────────────┼───────────────────┼────────────┼───────────────────┤
│ spatial_dropout1d_… │ (512, 6, 128)     │          0 │ max_pooling1d_10… │
│ (SpatialDropout1D)  │                   │            │                   │
├─────────────────────┼───────────────────┼────────────┼───────────────────┤
│ spatial_dropout1d_… │ (512, 6, 128)     │          0 │ max_pooling1d_11… │
│ (SpatialDropout1D)  │                   │            │                   │
├─────────────────────┼───────────────────┼────────────┼───────────────────┤
│ spatial_dropout1d_… │ (512, 6, 128)     │          0 │ max_pooling1d_12… │
│ (SpatialDropout1D)  │                   │            │                   │
├─────────────────────┼───────────────────┼────────────┼───────────────────┤
│ spatial_dropout1d_… │ (512, 6, 128)     │          0 │ max_pooling1d_13… │
│ (SpatialDropout1D)  │                   │            │                   │
├─────────────────────┼───────────────────┼────────────┼───────────────────┤
│ global_max_pooling… │ (512, 128)        │          0 │ spatial_dropout1… │
│ (GlobalMaxPooling1… │                   │            │                   │
├─────────────────────┼───────────────────┼────────────┼───────────────────┤
│ global_max_pooling… │ (512, 128)        │          0 │ spatial_dropout1… │
│ (GlobalMaxPooling1… │                   │            │                   │
├─────────────────────┼───────────────────┼────────────┼───────────────────┤
│ global_max_pooling… │ (512, 128)        │          0 │ spatial_dropout1… │
│ (GlobalMaxPooling1… │                   │            │                   │
├─────────────────────┼───────────────────┼────────────┼───────────────────┤
│ global_max_pooling… │ (512, 128)        │          0 │ spatial_dropout1… │
│ (GlobalMaxPooling1… │                   │            │                   │
├─────────────────────┼───────────────────┼────────────┼───────────────────┤
│ global_max_pooling… │ (512, 128)        │          0 │ spatial_dropout1… │
│ (GlobalMaxPooling1… │                   │            │                   │
├─────────────────────┼───────────────────┼────────────┼───────────────────┤
│ global_max_pooling… │ (512, 128)        │          0 │ spatial_dropout1… │
│ (GlobalMaxPooling1… │                   │            │                   │
├─────────────────────┼───────────────────┼────────────┼───────────────────┤
│ concatenate_1       │ (512, 768)        │          0 │ global_max_pooli… │
│ (Concatenate)       │                   │            │ global_max_pooli… │
│                     │                   │            │ global_max_pooli… │
│                     │                   │            │ global_max_pooli… │
│                     │                   │            │ global_max_pooli… │
│                     │                   │            │ global_max_pooli… │
├─────────────────────┼───────────────────┼────────────┼───────────────────┤
│ dropout_1 (Dropout) │ (512, 768)        │          0 │ concatenate_1[0]… │
├─────────────────────┼───────────────────┼────────────┼───────────────────┤
│ dense_1 (Dense)     │ (512, 129)        │     99,201 │ dropout_1[0][0]   │
└─────────────────────┴───────────────────┴────────────┴───────────────────┘
 Total params: 441,713 (1.69 MB)
 Trainable params: 439,985 (1.68 MB)
 Non-trainable params: 1,728 (6.75 KB)
