…
│                     │ 1)                │            │                   │
├─────────────────────┼───────────────────┼────────────┼───────────────────┤
│ conv2d_4 (Conv2D)   │ (128, 312, 32,    │        272 │ reshape_8[0][0]   │
│                     │ 16)               │            │                   │
├─────────────────────┼───────────────────┼────────────┼───────────────────┤
│ leaky_re_lu_36      │ (128, 312, 32,    │          0 │ conv2d_4[0][0]    │
│ (LeakyReLU)         │ 16)               │            │                   │
├─────────────────────┼───────────────────┼────────────┼───────────────────┤
│ reshape_9 (Reshape) │ (128, 312, 512)   │          0 │ leaky_re_lu_36[0… │
├─────────────────────┼───────────────────┼────────────┼───────────────────┤
│ conv1d_32 (Conv1D)  │ (128, 312, 32)    │     81,952 │ reshape_9[0][0]   │
├─────────────────────┼───────────────────┼────────────┼───────────────────┤
│ batch_normalizatio… │ (128, 312, 32)    │        128 │ conv1d_32[0][0]   │
│ (BatchNormalizatio… │                   │            │                   │
├─────────────────────┼───────────────────┼────────────┼───────────────────┤
│ leaky_re_lu_37      │ (128, 312, 32)    │          0 │ batch_normalizat… │
│ (LeakyReLU)         │                   │            │                   │
├─────────────────────┼───────────────────┼────────────┼───────────────────┤
│ spatial_dropout1d_… │ (128, 312, 32)    │          0 │ leaky_re_lu_37[0… │
│ (SpatialDropout1D)  │                   │            │                   │
├─────────────────────┼───────────────────┼────────────┼───────────────────┤
│ conv1d_33 (Conv1D)  │ (128, 312, 64)    │     10,304 │ spatial_dropout1… │
├─────────────────────┼───────────────────┼────────────┼───────────────────┤
│ batch_normalizatio… │ (128, 312, 64)    │        256 │ conv1d_33[0][0]   │
│ (BatchNormalizatio… │                   │            │                   │
├─────────────────────┼───────────────────┼────────────┼───────────────────┤
│ leaky_re_lu_38      │ (128, 312, 64)    │          0 │ batch_normalizat… │
│ (LeakyReLU)         │                   │            │                   │
├─────────────────────┼───────────────────┼────────────┼───────────────────┤
│ max_pooling1d_28    │ (128, 156, 64)    │          0 │ leaky_re_lu_38[0… │
│ (MaxPooling1D)      │                   │            │                   │
├─────────────────────┼───────────────────┼────────────┼───────────────────┤
│ spatial_dropout1d_… │ (128, 156, 64)    │          0 │ max_pooling1d_28… │
│ (SpatialDropout1D)  │                   │            │                   │
├─────────────────────┼───────────────────┼────────────┼───────────────────┤
│ lambda_24 (Lambda)  │ (128, 26, 64)     │          0 │ spatial_dropout1… │
├─────────────────────┼───────────────────┼────────────┼───────────────────┤
│ lambda_25 (Lambda)  │ (128, 26, 64)     │          0 │ spatial_dropout1… │
├─────────────────────┼───────────────────┼────────────┼───────────────────┤
│ lambda_26 (Lambda)  │ (128, 26, 64)     │          0 │ spatial_dropout1… │
├─────────────────────┼───────────────────┼────────────┼───────────────────┤
│ lambda_27 (Lambda)  │ (128, 26, 64)     │          0 │ spatial_dropout1… │
├─────────────────────┼───────────────────┼────────────┼───────────────────┤
│ lambda_28 (Lambda)  │ (128, 26, 64)     │          0 │ spatial_dropout1… │
├─────────────────────┼───────────────────┼────────────┼───────────────────┤
│ lambda_29 (Lambda)  │ (128, 26, 64)     │          0 │ spatial_dropout1… │
├─────────────────────┼───────────────────┼────────────┼───────────────────┤
│ conv1d_34 (Conv1D)  │ (128, 26, 128)    │     41,088 │ lambda_24[0][0]   │
├─────────────────────┼───────────────────┼────────────┼───────────────────┤
│ conv1d_35 (Conv1D)  │ (128, 26, 128)    │     41,088 │ lambda_25[0][0]   │
├─────────────────────┼───────────────────┼────────────┼───────────────────┤
│ conv1d_36 (Conv1D)  │ (128, 26, 128)    │     41,088 │ lambda_26[0][0]   │
├─────────────────────┼───────────────────┼────────────┼───────────────────┤
│ conv1d_37 (Conv1D)  │ (128, 26, 128)    │     41,088 │ lambda_27[0][0]   │
├─────────────────────┼───────────────────┼────────────┼───────────────────┤
│ conv1d_38 (Conv1D)  │ (128, 26, 128)    │     41,088 │ lambda_28[0][0]   │
├─────────────────────┼───────────────────┼────────────┼───────────────────┤
│ conv1d_39 (Conv1D)  │ (128, 26, 128)    │     41,088 │ lambda_29[0][0]   │
├─────────────────────┼───────────────────┼────────────┼───────────────────┤
│ batch_normalizatio… │ (128, 26, 128)    │        512 │ conv1d_34[0][0]   │
│ (BatchNormalizatio… │                   │            │                   │
├─────────────────────┼───────────────────┼────────────┼───────────────────┤
│ batch_normalizatio… │ (128, 26, 128)    │        512 │ conv1d_35[0][0]   │
│ (BatchNormalizatio… │                   │            │                   │
├─────────────────────┼───────────────────┼────────────┼───────────────────┤
│ batch_normalizatio… │ (128, 26, 128)    │        512 │ conv1d_36[0][0]   │
│ (BatchNormalizatio… │                   │            │                   │
├─────────────────────┼───────────────────┼────────────┼───────────────────┤
│ batch_normalizatio… │ (128, 26, 128)    │        512 │ conv1d_37[0][0]   │
│ (BatchNormalizatio… │                   │            │                   │
├─────────────────────┼───────────────────┼────────────┼───────────────────┤
│ batch_normalizatio… │ (128, 26, 128)    │        512 │ conv1d_38[0][0]   │
│ (BatchNormalizatio… │                   │            │                   │
├─────────────────────┼───────────────────┼────────────┼───────────────────┤
│ batch_normalizatio… │ (128, 26, 128)    │        512 │ conv1d_39[0][0]   │
│ (BatchNormalizatio… │                   │            │                   │
├─────────────────────┼───────────────────┼────────────┼───────────────────┤
│ leaky_re_lu_39      │ (128, 26, 128)    │          0 │ batch_normalizat… │
│ (LeakyReLU)         │                   │            │                   │
├─────────────────────┼───────────────────┼────────────┼───────────────────┤
│ leaky_re_lu_40      │ (128, 26, 128)    │          0 │ batch_normalizat… │
│ (LeakyReLU)         │                   │            │                   │
├─────────────────────┼───────────────────┼────────────┼───────────────────┤
│ leaky_re_lu_41      │ (128, 26, 128)    │          0 │ batch_normalizat… │
│ (LeakyReLU)         │                   │            │                   │
├─────────────────────┼───────────────────┼────────────┼───────────────────┤
│ leaky_re_lu_42      │ (128, 26, 128)    │          0 │ batch_normalizat… │
│ (LeakyReLU)         │                   │            │                   │
├─────────────────────┼───────────────────┼────────────┼───────────────────┤
│ leaky_re_lu_43      │ (128, 26, 128)    │          0 │ batch_normalizat… │
│ (LeakyReLU)         │                   │            │                   │
├─────────────────────┼───────────────────┼────────────┼───────────────────┤
│ leaky_re_lu_44      │ (128, 26, 128)    │          0 │ batch_normalizat… │
│ (LeakyReLU)         │                   │            │                   │
├─────────────────────┼───────────────────┼────────────┼───────────────────┤
│ max_pooling1d_29    │ (128, 6, 128)     │          0 │ leaky_re_lu_39[0… │
│ (MaxPooling1D)      │                   │            │                   │
├─────────────────────┼───────────────────┼────────────┼───────────────────┤
│ max_pooling1d_30    │ (128, 6, 128)     │          0 │ leaky_re_lu_40[0… │
│ (MaxPooling1D)      │                   │            │                   │
├─────────────────────┼───────────────────┼────────────┼───────────────────┤
│ max_pooling1d_31    │ (128, 6, 128)     │          0 │ leaky_re_lu_41[0… │
│ (MaxPooling1D)      │                   │            │                   │
├─────────────────────┼───────────────────┼────────────┼───────────────────┤
│ max_pooling1d_32    │ (128, 6, 128)     │          0 │ leaky_re_lu_42[0… │
│ (MaxPooling1D)      │                   │            │                   │
├─────────────────────┼───────────────────┼────────────┼───────────────────┤
│ max_pooling1d_33    │ (128, 6, 128)     │          0 │ leaky_re_lu_43[0… │
│ (MaxPooling1D)      │                   │            │                   │
├─────────────────────┼───────────────────┼────────────┼───────────────────┤
│ max_pooling1d_34    │ (128, 6, 128)     │          0 │ leaky_re_lu_44[0… │
│ (MaxPooling1D)      │                   │            │                   │
├─────────────────────┼───────────────────┼────────────┼───────────────────┤
│ spatial_dropout1d_… │ (128, 6, 128)     │          0 │ max_pooling1d_29… │
│ (SpatialDropout1D)  │                   │            │                   │
├─────────────────────┼───────────────────┼────────────┼───────────────────┤
│ spatial_dropout1d_… │ (128, 6, 128)     │          0 │ max_pooling1d_30… │
│ (SpatialDropout1D)  │                   │            │                   │
├─────────────────────┼───────────────────┼────────────┼───────────────────┤
│ spatial_dropout1d_… │ (128, 6, 128)     │          0 │ max_pooling1d_31… │
│ (SpatialDropout1D)  │                   │            │                   │
├─────────────────────┼───────────────────┼────────────┼───────────────────┤
│ spatial_dropout1d_… │ (128, 6, 128)     │          0 │ max_pooling1d_32… │
│ (SpatialDropout1D)  │                   │            │                   │
├─────────────────────┼───────────────────┼────────────┼───────────────────┤
│ spatial_dropout1d_… │ (128, 6, 128)     │          0 │ max_pooling1d_33… │
│ (SpatialDropout1D)  │                   │            │                   │
├─────────────────────┼───────────────────┼────────────┼───────────────────┤
│ spatial_dropout1d_… │ (128, 6, 128)     │          0 │ max_pooling1d_34… │
│ (SpatialDropout1D)  │                   │            │                   │
├─────────────────────┼───────────────────┼────────────┼───────────────────┤
│ global_max_pooling… │ (128, 128)        │          0 │ spatial_dropout1… │
│ (GlobalMaxPooling1… │                   │            │                   │
├─────────────────────┼───────────────────┼────────────┼───────────────────┤
│ global_max_pooling… │ (128, 128)        │          0 │ spatial_dropout1… │
│ (GlobalMaxPooling1… │                   │            │                   │
├─────────────────────┼───────────────────┼────────────┼───────────────────┤
│ global_max_pooling… │ (128, 128)        │          0 │ spatial_dropout1… │
│ (GlobalMaxPooling1… │                   │            │                   │
├─────────────────────┼───────────────────┼────────────┼───────────────────┤
│ global_max_pooling… │ (128, 128)        │          0 │ spatial_dropout1… │
│ (GlobalMaxPooling1… │                   │            │                   │
├─────────────────────┼───────────────────┼────────────┼───────────────────┤
│ global_max_pooling… │ (128, 128)        │          0 │ spatial_dropout1… │
│ (GlobalMaxPooling1… │                   │            │                   │
├─────────────────────┼───────────────────┼────────────┼───────────────────┤
│ global_max_pooling… │ (128, 128)        │          0 │ spatial_dropout1… │
│ (GlobalMaxPooling1… │                   │            │                   │
├─────────────────────┼───────────────────┼────────────┼───────────────────┤
│ concatenate_4       │ (128, 768)        │          0 │ global_max_pooli… │
│ (Concatenate)       │                   │            │ global_max_pooli… │
│                     │                   │            │ global_max_pooli… │
│                     │                   │            │ global_max_pooli… │
│                     │                   │            │ global_max_pooli… │
│                     │                   │            │ global_max_pooli… │
├─────────────────────┼───────────────────┼────────────┼───────────────────┤
│ dropout_4 (Dropout) │ (128, 768)        │          0 │ concatenate_4[0]… │
├─────────────────────┼───────────────────┼────────────┼───────────────────┤
│ dense_4 (Dense)     │ (128, 129)        │     99,201 │ dropout_4[0][0]   │
└─────────────────────┴───────────────────┴────────────┴───────────────────┘
 Total params: 441,713 (1.69 MB)
 Trainable params: 439,985 (1.68 MB)
 Non-trainable params: 1,728 (6.75 KB)
