…
│                     │ 1)                │            │                   │
├─────────────────────┼───────────────────┼────────────┼───────────────────┤
│ conv2d (Conv2D)     │ (512, 312, 32,    │        272 │ reshape[0][0]     │
│                     │ 16)               │            │                   │
├─────────────────────┼───────────────────┼────────────┼───────────────────┤
│ leaky_re_lu         │ (512, 312, 32,    │          0 │ conv2d[0][0]      │
│ (LeakyReLU)         │ 16)               │            │                   │
├─────────────────────┼───────────────────┼────────────┼───────────────────┤
│ reshape_1 (Reshape) │ (512, 312, 512)   │          0 │ leaky_re_lu[0][0] │
├─────────────────────┼───────────────────┼────────────┼───────────────────┤
│ conv1d (Conv1D)     │ (512, 312, 32)    │     81,952 │ reshape_1[0][0]   │
├─────────────────────┼───────────────────┼────────────┼───────────────────┤
│ batch_normalization │ (512, 312, 32)    │        128 │ conv1d[0][0]      │
│ (BatchNormalizatio… │                   │            │                   │
├─────────────────────┼───────────────────┼────────────┼───────────────────┤
│ leaky_re_lu_1       │ (512, 312, 32)    │          0 │ batch_normalizat… │
│ (LeakyReLU)         │                   │            │                   │
├─────────────────────┼───────────────────┼────────────┼───────────────────┤
│ spatial_dropout1d   │ (512, 312, 32)    │          0 │ leaky_re_lu_1[0]… │
│ (SpatialDropout1D)  │                   │            │                   │
├─────────────────────┼───────────────────┼────────────┼───────────────────┤
│ conv1d_1 (Conv1D)   │ (512, 312, 64)    │     10,304 │ spatial_dropout1… │
├─────────────────────┼───────────────────┼────────────┼───────────────────┤
│ batch_normalizatio… │ (512, 312, 64)    │        256 │ conv1d_1[0][0]    │
│ (BatchNormalizatio… │                   │            │                   │
├─────────────────────┼───────────────────┼────────────┼───────────────────┤
│ leaky_re_lu_2       │ (512, 312, 64)    │          0 │ batch_normalizat… │
│ (LeakyReLU)         │                   │            │                   │
├─────────────────────┼───────────────────┼────────────┼───────────────────┤
│ max_pooling1d       │ (512, 156, 64)    │          0 │ leaky_re_lu_2[0]… │
│ (MaxPooling1D)      │                   │            │                   │
├─────────────────────┼───────────────────┼────────────┼───────────────────┤
│ spatial_dropout1d_1 │ (512, 156, 64)    │          0 │ max_pooling1d[0]… │
│ (SpatialDropout1D)  │                   │            │                   │
├─────────────────────┼───────────────────┼────────────┼───────────────────┤
│ lambda (Lambda)     │ (512, 26, 64)     │          0 │ spatial_dropout1… │
├─────────────────────┼───────────────────┼────────────┼───────────────────┤
│ lambda_1 (Lambda)   │ (512, 26, 64)     │          0 │ spatial_dropout1… │
├─────────────────────┼───────────────────┼────────────┼───────────────────┤
│ lambda_2 (Lambda)   │ (512, 26, 64)     │          0 │ spatial_dropout1… │
├─────────────────────┼───────────────────┼────────────┼───────────────────┤
│ lambda_3 (Lambda)   │ (512, 26, 64)     │          0 │ spatial_dropout1… │
├─────────────────────┼───────────────────┼────────────┼───────────────────┤
│ lambda_4 (Lambda)   │ (512, 26, 64)     │          0 │ spatial_dropout1… │
├─────────────────────┼───────────────────┼────────────┼───────────────────┤
│ lambda_5 (Lambda)   │ (512, 26, 64)     │          0 │ spatial_dropout1… │
├─────────────────────┼───────────────────┼────────────┼───────────────────┤
│ conv1d_2 (Conv1D)   │ (512, 26, 128)    │     41,088 │ lambda[0][0]      │
├─────────────────────┼───────────────────┼────────────┼───────────────────┤
│ conv1d_3 (Conv1D)   │ (512, 26, 128)    │     41,088 │ lambda_1[0][0]    │
├─────────────────────┼───────────────────┼────────────┼───────────────────┤
│ conv1d_4 (Conv1D)   │ (512, 26, 128)    │     41,088 │ lambda_2[0][0]    │
├─────────────────────┼───────────────────┼────────────┼───────────────────┤
│ conv1d_5 (Conv1D)   │ (512, 26, 128)    │     41,088 │ lambda_3[0][0]    │
├─────────────────────┼───────────────────┼────────────┼───────────────────┤
│ conv1d_6 (Conv1D)   │ (512, 26, 128)    │     41,088 │ lambda_4[0][0]    │
├─────────────────────┼───────────────────┼────────────┼───────────────────┤
│ conv1d_7 (Conv1D)   │ (512, 26, 128)    │     41,088 │ lambda_5[0][0]    │
├─────────────────────┼───────────────────┼────────────┼───────────────────┤
│ batch_normalizatio… │ (512, 26, 128)    │        512 │ conv1d_2[0][0]    │
│ (BatchNormalizatio… │                   │            │                   │
├─────────────────────┼───────────────────┼────────────┼───────────────────┤
│ batch_normalizatio… │ (512, 26, 128)    │        512 │ conv1d_3[0][0]    │
│ (BatchNormalizatio… │                   │            │                   │
├─────────────────────┼───────────────────┼────────────┼───────────────────┤
│ batch_normalizatio… │ (512, 26, 128)    │        512 │ conv1d_4[0][0]    │
│ (BatchNormalizatio… │                   │            │                   │
├─────────────────────┼───────────────────┼────────────┼───────────────────┤
│ batch_normalizatio… │ (512, 26, 128)    │        512 │ conv1d_5[0][0]    │
│ (BatchNormalizatio… │                   │            │                   │
├─────────────────────┼───────────────────┼────────────┼───────────────────┤
│ batch_normalizatio… │ (512, 26, 128)    │        512 │ conv1d_6[0][0]    │
│ (BatchNormalizatio… │                   │            │                   │
├─────────────────────┼───────────────────┼────────────┼───────────────────┤
│ batch_normalizatio… │ (512, 26, 128)    │        512 │ conv1d_7[0][0]    │
│ (BatchNormalizatio… │                   │            │                   │
├─────────────────────┼───────────────────┼────────────┼───────────────────┤
│ leaky_re_lu_3       │ (512, 26, 128)    │          0 │ batch_normalizat… │
│ (LeakyReLU)         │                   │            │                   │
├─────────────────────┼───────────────────┼────────────┼───────────────────┤
│ leaky_re_lu_4       │ (512, 26, 128)    │          0 │ batch_normalizat… │
│ (LeakyReLU)         │                   │            │                   │
├─────────────────────┼───────────────────┼────────────┼───────────────────┤
│ leaky_re_lu_5       │ (512, 26, 128)    │          0 │ batch_normalizat… │
│ (LeakyReLU)         │                   │            │                   │
├─────────────────────┼───────────────────┼────────────┼───────────────────┤
│ leaky_re_lu_6       │ (512, 26, 128)    │          0 │ batch_normalizat… │
│ (LeakyReLU)         │                   │            │                   │
├─────────────────────┼───────────────────┼────────────┼───────────────────┤
│ leaky_re_lu_7       │ (512, 26, 128)    │          0 │ batch_normalizat… │
│ (LeakyReLU)         │                   │            │                   │
├─────────────────────┼───────────────────┼────────────┼───────────────────┤
│ leaky_re_lu_8       │ (512, 26, 128)    │          0 │ batch_normalizat… │
│ (LeakyReLU)         │                   │            │                   │
├─────────────────────┼───────────────────┼────────────┼───────────────────┤
│ max_pooling1d_1     │ (512, 6, 128)     │          0 │ leaky_re_lu_3[0]… │
│ (MaxPooling1D)      │                   │            │                   │
├─────────────────────┼───────────────────┼────────────┼───────────────────┤
│ max_pooling1d_2     │ (512, 6, 128)     │          0 │ leaky_re_lu_4[0]… │
│ (MaxPooling1D)      │                   │            │                   │
├─────────────────────┼───────────────────┼────────────┼───────────────────┤
│ max_pooling1d_3     │ (512, 6, 128)     │          0 │ leaky_re_lu_5[0]… │
│ (MaxPooling1D)      │                   │            │                   │
├─────────────────────┼───────────────────┼────────────┼───────────────────┤
│ max_pooling1d_4     │ (512, 6, 128)     │          0 │ leaky_re_lu_6[0]… │
│ (MaxPooling1D)      │                   │            │                   │
├─────────────────────┼───────────────────┼────────────┼───────────────────┤
│ max_pooling1d_5     │ (512, 6, 128)     │          0 │ leaky_re_lu_7[0]… │
│ (MaxPooling1D)      │                   │            │                   │
├─────────────────────┼───────────────────┼────────────┼───────────────────┤
│ max_pooling1d_6     │ (512, 6, 128)     │          0 │ leaky_re_lu_8[0]… │
│ (MaxPooling1D)      │                   │            │                   │
├─────────────────────┼───────────────────┼────────────┼───────────────────┤
│ spatial_dropout1d_2 │ (512, 6, 128)     │          0 │ max_pooling1d_1[… │
│ (SpatialDropout1D)  │                   │            │                   │
├─────────────────────┼───────────────────┼────────────┼───────────────────┤
│ spatial_dropout1d_3 │ (512, 6, 128)     │          0 │ max_pooling1d_2[… │
│ (SpatialDropout1D)  │                   │            │                   │
├─────────────────────┼───────────────────┼────────────┼───────────────────┤
│ spatial_dropout1d_4 │ (512, 6, 128)     │          0 │ max_pooling1d_3[… │
│ (SpatialDropout1D)  │                   │            │                   │
├─────────────────────┼───────────────────┼────────────┼───────────────────┤
│ spatial_dropout1d_5 │ (512, 6, 128)     │          0 │ max_pooling1d_4[… │
│ (SpatialDropout1D)  │                   │            │                   │
├─────────────────────┼───────────────────┼────────────┼───────────────────┤
│ spatial_dropout1d_6 │ (512, 6, 128)     │          0 │ max_pooling1d_5[… │
│ (SpatialDropout1D)  │                   │            │                   │
├─────────────────────┼───────────────────┼────────────┼───────────────────┤
│ spatial_dropout1d_7 │ (512, 6, 128)     │          0 │ max_pooling1d_6[… │
│ (SpatialDropout1D)  │                   │            │                   │
├─────────────────────┼───────────────────┼────────────┼───────────────────┤
│ global_max_pooling… │ (512, 128)        │          0 │ spatial_dropout1… │
│ (GlobalMaxPooling1… │                   │            │                   │
├─────────────────────┼───────────────────┼────────────┼───────────────────┤
│ global_max_pooling… │ (512, 128)        │          0 │ spatial_dropout1… │
│ (GlobalMaxPooling1… │                   │            │                   │
├─────────────────────┼───────────────────┼────────────┼───────────────────┤
│ global_max_pooling… │ (512, 128)        │          0 │ spatial_dropout1… │
│ (GlobalMaxPooling1… │                   │            │                   │
├─────────────────────┼───────────────────┼────────────┼───────────────────┤
│ global_max_pooling… │ (512, 128)        │          0 │ spatial_dropout1… │
│ (GlobalMaxPooling1… │                   │            │                   │
├─────────────────────┼───────────────────┼────────────┼───────────────────┤
│ global_max_pooling… │ (512, 128)        │          0 │ spatial_dropout1… │
│ (GlobalMaxPooling1… │                   │            │                   │
├─────────────────────┼───────────────────┼────────────┼───────────────────┤
│ global_max_pooling… │ (512, 128)        │          0 │ spatial_dropout1… │
│ (GlobalMaxPooling1… │                   │            │                   │
├─────────────────────┼───────────────────┼────────────┼───────────────────┤
│ concatenate         │ (512, 768)        │          0 │ global_max_pooli… │
│ (Concatenate)       │                   │            │ global_max_pooli… │
│                     │                   │            │ global_max_pooli… │
│                     │                   │            │ global_max_pooli… │
│                     │                   │            │ global_max_pooli… │
│                     │                   │            │ global_max_pooli… │
├─────────────────────┼───────────────────┼────────────┼───────────────────┤
│ dropout (Dropout)   │ (512, 768)        │          0 │ concatenate[0][0] │
├─────────────────────┼───────────────────┼────────────┼───────────────────┤
│ dense (Dense)       │ (512, 129)        │     99,201 │ dropout[0][0]     │
└─────────────────────┴───────────────────┴────────────┴───────────────────┘
 Total params: 441,713 (1.69 MB)
 Trainable params: 439,985 (1.68 MB)
 Non-trainable params: 1,728 (6.75 KB)
