…
│ (AveragePooling2D)  │ 1)                │            │                   │
├─────────────────────┼───────────────────┼────────────┼───────────────────┤
│ local_contrast      │ (256, 148, 256,   │          0 │ input_spectrogra… │
│ (Subtract)          │ 1)                │            │ local_mean[0][0]  │
├─────────────────────┼───────────────────┼────────────┼───────────────────┤
│ reshape_to_2d       │ (256, 148, 256,   │          0 │ local_contrast[0… │
│ (Reshape)           │ 1)                │            │                   │
├─────────────────────┼───────────────────┼────────────┼───────────────────┤
│ freq_compress_conv… │ (256, 148, 64, 8) │        136 │ reshape_to_2d[0]… │
│ (Conv2D)            │                   │            │                   │
├─────────────────────┼───────────────────┼────────────┼───────────────────┤
│ freq_compress_bn    │ (256, 148, 64, 8) │         32 │ freq_compress_co… │
│ (BatchNormalizatio… │                   │            │                   │
├─────────────────────┼───────────────────┼────────────┼───────────────────┤
│ freq_compress_act   │ (256, 148, 64, 8) │          0 │ freq_compress_bn… │
│ (LeakyReLU)         │                   │            │                   │
├─────────────────────┼───────────────────┼────────────┼───────────────────┤
│ freq_compress_drop  │ (256, 148, 64, 8) │          0 │ freq_compress_ac… │
│ (SpatialDropout2D)  │                   │            │                   │
├─────────────────────┼───────────────────┼────────────┼───────────────────┤
│ reshape_to_1d       │ (256, 148, 512)   │          0 │ freq_compress_dr… │
│ (Reshape)           │                   │            │                   │
├─────────────────────┼───────────────────┼────────────┼───────────────────┤
│ tfm_block1_ln1      │ (256, 148, 512)   │      1,024 │ reshape_to_1d[0]… │
│ (LayerNormalizatio… │                   │            │                   │
├─────────────────────┼───────────────────┼────────────┼───────────────────┤
│ tfm_block1_mha      │ (256, 148, 512)   │    131,776 │ tfm_block1_ln1[0… │
│ (MultiHeadAttentio… │                   │            │ tfm_block1_ln1[0… │
├─────────────────────┼───────────────────┼────────────┼───────────────────┤
│ tfm_block1_attn_add │ (256, 148, 512)   │          0 │ reshape_to_1d[0]… │
│ (Add)               │                   │            │ tfm_block1_mha[0… │
├─────────────────────┼───────────────────┼────────────┼───────────────────┤
│ tfm_block1_ln2      │ (256, 148, 512)   │      1,024 │ tfm_block1_attn_… │
│ (LayerNormalizatio… │                   │            │                   │
├─────────────────────┼───────────────────┼────────────┼───────────────────┤
│ tfm_block1_ffn1     │ (256, 148, 128)   │     65,664 │ tfm_block1_ln2[0… │
│ (Dense)             │                   │            │                   │
├─────────────────────┼───────────────────┼────────────┼───────────────────┤
│ tfm_block1_ffn_drop │ (256, 148, 128)   │          0 │ tfm_block1_ffn1[… │
│ (Dropout)           │                   │            │                   │
├─────────────────────┼───────────────────┼────────────┼───────────────────┤
│ tfm_block1_ffn2     │ (256, 148, 512)   │     66,048 │ tfm_block1_ffn_d… │
│ (Dense)             │                   │            │                   │
├─────────────────────┼───────────────────┼────────────┼───────────────────┤
│ tfm_block1_ffn_add  │ (256, 148, 512)   │          0 │ tfm_block1_attn_… │
│ (Add)               │                   │            │ tfm_block1_ffn2[… │
├─────────────────────┼───────────────────┼────────────┼───────────────────┤
│ str5_slice (Lambda) │ (256, 51, 512)    │          0 │ tfm_block1_ffn_a… │
├─────────────────────┼───────────────────┼────────────┼───────────────────┤
│ str0_slice (Lambda) │ (256, 52, 512)    │          0 │ tfm_block1_ffn_a… │
├─────────────────────┼───────────────────┼────────────┼───────────────────┤
│ str1_slice (Lambda) │ (256, 52, 512)    │          0 │ tfm_block1_ffn_a… │
├─────────────────────┼───────────────────┼────────────┼───────────────────┤
│ str2_slice (Lambda) │ (256, 52, 512)    │          0 │ tfm_block1_ffn_a… │
├─────────────────────┼───────────────────┼────────────┼───────────────────┤
│ str3_slice (Lambda) │ (256, 52, 512)    │          0 │ tfm_block1_ffn_a… │
├─────────────────────┼───────────────────┼────────────┼───────────────────┤
│ str4_slice (Lambda) │ (256, 52, 512)    │          0 │ tfm_block1_ffn_a… │
├─────────────────────┼───────────────────┼────────────┼───────────────────┤
│ str5_backbone_sque… │ (256, 51, 32)     │     16,416 │ str5_slice[0][0]  │
│ (Conv1D)            │                   │            │                   │
├─────────────────────┼───────────────────┼────────────┼───────────────────┤
│ str0_backbone_sque… │ (256, 52, 32)     │     16,416 │ str0_slice[0][0]  │
│ (Conv1D)            │                   │            │                   │
├─────────────────────┼───────────────────┼────────────┼───────────────────┤
│ str1_backbone_sque… │ (256, 52, 32)     │     16,416 │ str1_slice[0][0]  │
│ (Conv1D)            │                   │            │                   │
├─────────────────────┼───────────────────┼────────────┼───────────────────┤
│ str2_backbone_sque… │ (256, 52, 32)     │     16,416 │ str2_slice[0][0]  │
│ (Conv1D)            │                   │            │                   │
├─────────────────────┼───────────────────┼────────────┼───────────────────┤
│ str3_backbone_sque… │ (256, 52, 32)     │     16,416 │ str3_slice[0][0]  │
│ (Conv1D)            │                   │            │                   │
├─────────────────────┼───────────────────┼────────────┼───────────────────┤
│ str4_backbone_sque… │ (256, 52, 32)     │     16,416 │ str4_slice[0][0]  │
│ (Conv1D)            │                   │            │                   │
├─────────────────────┼───────────────────┼────────────┼───────────────────┤
│ str5_backbone_sque… │ (256, 51, 32)     │        128 │ str5_backbone_sq… │
│ (BatchNormalizatio… │                   │            │                   │
├─────────────────────┼───────────────────┼────────────┼───────────────────┤
│ str0_backbone_sque… │ (256, 52, 32)     │        128 │ str0_backbone_sq… │
│ (BatchNormalizatio… │                   │            │                   │
├─────────────────────┼───────────────────┼────────────┼───────────────────┤
│ str1_backbone_sque… │ (256, 52, 32)     │        128 │ str1_backbone_sq… │
│ (BatchNormalizatio… │                   │            │                   │
├─────────────────────┼───────────────────┼────────────┼───────────────────┤
│ str2_backbone_sque… │ (256, 52, 32)     │        128 │ str2_backbone_sq… │
│ (BatchNormalizatio… │                   │            │                   │
├─────────────────────┼───────────────────┼────────────┼───────────────────┤
│ str3_backbone_sque… │ (256, 52, 32)     │        128 │ str3_backbone_sq… │
│ (BatchNormalizatio… │                   │            │                   │
├─────────────────────┼───────────────────┼────────────┼───────────────────┤
│ str4_backbone_sque… │ (256, 52, 32)     │        128 │ str4_backbone_sq… │
│ (BatchNormalizatio… │                   │            │                   │
├─────────────────────┼───────────────────┼────────────┼───────────────────┤
│ str5_backbone_sque… │ (256, 51, 32)     │          0 │ str5_backbone_sq… │
│ (LeakyReLU)         │                   │            │                   │
├─────────────────────┼───────────────────┼────────────┼───────────────────┤
│ str0_backbone_sque… │ (256, 52, 32)     │          0 │ str0_backbone_sq… │
│ (LeakyReLU)         │                   │            │                   │
├─────────────────────┼───────────────────┼────────────┼───────────────────┤
│ str1_backbone_sque… │ (256, 52, 32)     │          0 │ str1_backbone_sq… │
│ (LeakyReLU)         │                   │            │                   │
├─────────────────────┼───────────────────┼────────────┼───────────────────┤
│ str2_backbone_sque… │ (256, 52, 32)     │          0 │ str2_backbone_sq… │
│ (LeakyReLU)         │                   │            │                   │
├─────────────────────┼───────────────────┼────────────┼───────────────────┤
│ str3_backbone_sque… │ (256, 52, 32)     │          0 │ str3_backbone_sq… │
│ (LeakyReLU)         │                   │            │                   │
├─────────────────────┼───────────────────┼────────────┼───────────────────┤
│ str4_backbone_sque… │ (256, 52, 32)     │          0 │ str4_backbone_sq… │
│ (LeakyReLU)         │                   │            │                   │
├─────────────────────┼───────────────────┼────────────┼───────────────────┤
│ str5_backbone_conv1 │ (256, 51, 32)     │      8,224 │ str5_backbone_sq… │
│ (Conv1D)            │                   │            │                   │
├─────────────────────┼───────────────────┼────────────┼───────────────────┤
│ str0_backbone_conv1 │ (256, 52, 32)     │      8,224 │ str0_backbone_sq… │
│ (Conv1D)            │                   │            │                   │
├─────────────────────┼───────────────────┼────────────┼───────────────────┤
│ str1_backbone_conv1 │ (256, 52, 32)     │      8,224 │ str1_backbone_sq… │
│ (Conv1D)            │                   │            │                   │
├─────────────────────┼───────────────────┼────────────┼───────────────────┤
│ str2_backbone_conv1 │ (256, 52, 32)     │      8,224 │ str2_backbone_sq… │
│ (Conv1D)            │                   │            │                   │
├─────────────────────┼───────────────────┼────────────┼───────────────────┤
│ str3_backbone_conv1 │ (256, 52, 32)     │      8,224 │ str3_backbone_sq… │
│ (Conv1D)            │                   │            │                   │
├─────────────────────┼───────────────────┼────────────┼───────────────────┤
│ str4_backbone_conv1 │ (256, 52, 32)     │      8,224 │ str4_backbone_sq… │
│ (Conv1D)            │                   │            │                   │
├─────────────────────┼───────────────────┼────────────┼───────────────────┤
│ str5_backbone_bn1   │ (256, 51, 32)     │        128 │ str5_backbone_co… │
│ (BatchNormalizatio… │                   │            │                   │
├─────────────────────┼───────────────────┼────────────┼───────────────────┤
│ str0_backbone_bn1   │ (256, 52, 32)     │        128 │ str0_backbone_co… │
│ (BatchNormalizatio… │                   │            │                   │
├─────────────────────┼───────────────────┼────────────┼───────────────────┤
│ str1_backbone_bn1   │ (256, 52, 32)     │        128 │ str1_backbone_co… │
│ (BatchNormalizatio… │                   │            │                   │
├─────────────────────┼───────────────────┼────────────┼───────────────────┤
│ str2_backbone_bn1   │ (256, 52, 32)     │        128 │ str2_backbone_co… │
│ (BatchNormalizatio… │                   │            │                   │
├─────────────────────┼───────────────────┼────────────┼───────────────────┤
│ str3_backbone_bn1   │ (256, 52, 32)     │        128 │ str3_backbone_co… │
│ (BatchNormalizatio… │                   │            │                   │
├─────────────────────┼───────────────────┼────────────┼───────────────────┤
│ str4_backbone_bn1   │ (256, 52, 32)     │        128 │ str4_backbone_co… │
│ (BatchNormalizatio… │                   │            │                   │
├─────────────────────┼───────────────────┼────────────┼───────────────────┤
│ str5_backbone_act1  │ (256, 51, 32)     │          0 │ str5_backbone_bn… │
│ (LeakyReLU)         │                   │            │                   │
├─────────────────────┼───────────────────┼────────────┼───────────────────┤
│ str0_backbone_act1  │ (256, 52, 32)     │          0 │ str0_backbone_bn… │
│ (LeakyReLU)         │                   │            │                   │
├─────────────────────┼───────────────────┼────────────┼───────────────────┤
│ str1_backbone_act1  │ (256, 52, 32)     │          0 │ str1_backbone_bn… │
│ (LeakyReLU)         │                   │            │                   │
├─────────────────────┼───────────────────┼────────────┼───────────────────┤
│ str2_backbone_act1  │ (256, 52, 32)     │          0 │ str2_backbone_bn… │
│ (LeakyReLU)         │                   │            │                   │
├─────────────────────┼───────────────────┼────────────┼───────────────────┤
│ str3_backbone_act1  │ (256, 52, 32)     │          0 │ str3_backbone_bn… │
│ (LeakyReLU)         │                   │            │                   │
├─────────────────────┼───────────────────┼────────────┼───────────────────┤
│ str4_backbone_act1  │ (256, 52, 32)     │          0 │ str4_backbone_bn… │
│ (LeakyReLU)         │                   │            │                   │
├─────────────────────┼───────────────────┼────────────┼───────────────────┤
│ str5_backbone_drop1 │ (256, 51, 32)     │          0 │ str5_backbone_ac… │
│ (SpatialDropout1D)  │                   │            │                   │
├─────────────────────┼───────────────────┼────────────┼───────────────────┤
│ str0_backbone_drop1 │ (256, 52, 32)     │          0 │ str0_backbone_ac… │
│ (SpatialDropout1D)  │                   │            │                   │
├─────────────────────┼───────────────────┼────────────┼───────────────────┤
│ str1_backbone_drop1 │ (256, 52, 32)     │          0 │ str1_backbone_ac… │
│ (SpatialDropout1D)  │                   │            │                   │
├─────────────────────┼───────────────────┼────────────┼───────────────────┤
│ str2_backbone_drop1 │ (256, 52, 32)     │          0 │ str2_backbone_ac… │
│ (SpatialDropout1D)  │                   │            │                   │
├─────────────────────┼───────────────────┼────────────┼───────────────────┤
│ str3_backbone_drop1 │ (256, 52, 32)     │          0 │ str3_backbone_ac… │
│ (SpatialDropout1D)  │                   │            │                   │
├─────────────────────┼───────────────────┼────────────┼───────────────────┤
│ str4_backbone_drop1 │ (256, 52, 32)     │          0 │ str4_backbone_ac… │
│ (SpatialDropout1D)  │                   │            │                   │
├─────────────────────┼───────────────────┼────────────┼───────────────────┤
│ str5_backbone_conv2 │ (256, 51, 64)     │     16,448 │ str5_backbone_dr… │
│ (Conv1D)            │                   │            │                   │
├─────────────────────┼───────────────────┼────────────┼───────────────────┤
│ str0_backbone_conv2 │ (256, 52, 64)     │     16,448 │ str0_backbone_dr… │
│ (Conv1D)            │                   │            │                   │
├─────────────────────┼───────────────────┼────────────┼───────────────────┤
│ str1_backbone_conv2 │ (256, 52, 64)     │     16,448 │ str1_backbone_dr… │
│ (Conv1D)            │                   │            │                   │
├─────────────────────┼───────────────────┼────────────┼───────────────────┤
│ str2_backbone_conv2 │ (256, 52, 64)     │     16,448 │ str2_backbone_dr… │
│ (Conv1D)            │                   │            │                   │
├─────────────────────┼───────────────────┼────────────┼───────────────────┤
│ str3_backbone_conv2 │ (256, 52, 64)     │     16,448 │ str3_backbone_dr… │
│ (Conv1D)            │                   │            │                   │
├─────────────────────┼───────────────────┼────────────┼───────────────────┤
│ str4_backbone_conv2 │ (256, 52, 64)     │     16,448 │ str4_backbone_dr… │
│ (Conv1D)            │                   │            │                   │
├─────────────────────┼───────────────────┼────────────┼───────────────────┤
│ str5_backbone_bn2   │ (256, 51, 64)     │        256 │ str5_backbone_co… │
│ (BatchNormalizatio… │                   │            │                   │
├─────────────────────┼───────────────────┼────────────┼───────────────────┤
│ str0_backbone_bn2   │ (256, 52, 64)     │        256 │ str0_backbone_co… │
│ (BatchNormalizatio… │                   │            │                   │
├─────────────────────┼───────────────────┼────────────┼───────────────────┤
│ str1_backbone_bn2   │ (256, 52, 64)     │        256 │ str1_backbone_co… │
│ (BatchNormalizatio… │                   │            │                   │
├─────────────────────┼───────────────────┼────────────┼───────────────────┤
│ str2_backbone_bn2   │ (256, 52, 64)     │        256 │ str2_backbone_co… │
│ (BatchNormalizatio… │                   │            │                   │
├─────────────────────┼───────────────────┼────────────┼───────────────────┤
│ str3_backbone_bn2   │ (256, 52, 64)     │        256 │ str3_backbone_co… │
│ (BatchNormalizatio… │                   │            │                   │
├─────────────────────┼───────────────────┼────────────┼───────────────────┤
│ str4_backbone_bn2   │ (256, 52, 64)     │        256 │ str4_backbone_co… │
│ (BatchNormalizatio… │                   │            │                   │
├─────────────────────┼───────────────────┼────────────┼───────────────────┤
│ str5_backbone_act2  │ (256, 51, 64)     │          0 │ str5_backbone_bn… │
│ (LeakyReLU)         │                   │            │                   │
├─────────────────────┼───────────────────┼────────────┼───────────────────┤
│ str0_backbone_act2  │ (256, 52, 64)     │          0 │ str0_backbone_bn… │
│ (LeakyReLU)         │                   │            │                   │
├─────────────────────┼───────────────────┼────────────┼───────────────────┤
│ str1_backbone_act2  │ (256, 52, 64)     │          0 │ str1_backbone_bn… │
│ (LeakyReLU)         │                   │            │                   │
├─────────────────────┼───────────────────┼────────────┼───────────────────┤
│ str2_backbone_act2  │ (256, 52, 64)     │          0 │ str2_backbone_bn… │
│ (LeakyReLU)         │                   │            │                   │
├─────────────────────┼───────────────────┼────────────┼───────────────────┤
│ str3_backbone_act2  │ (256, 52, 64)     │          0 │ str3_backbone_bn… │
│ (LeakyReLU)         │                   │            │                   │
├─────────────────────┼───────────────────┼────────────┼───────────────────┤
│ str4_backbone_act2  │ (256, 52, 64)     │          0 │ str4_backbone_bn… │
│ (LeakyReLU)         │                   │            │                   │
├─────────────────────┼───────────────────┼────────────┼───────────────────┤
│ str5_harmonic_coll… │ (256, 12, 64)     │     16,448 │ str5_backbone_ac… │
│ (Conv1D)            │                   │            │                   │
├─────────────────────┼───────────────────┼────────────┼───────────────────┤
│ str0_harmonic_coll… │ (256, 13, 64)     │     16,448 │ str0_backbone_ac… │
│ (Conv1D)            │                   │            │                   │
├─────────────────────┼───────────────────┼────────────┼───────────────────┤
│ str1_harmonic_coll… │ (256, 13, 64)     │     16,448 │ str1_backbone_ac… │
│ (Conv1D)            │                   │            │                   │
├─────────────────────┼───────────────────┼────────────┼───────────────────┤
│ str2_harmonic_coll… │ (256, 13, 64)     │     16,448 │ str2_backbone_ac… │
│ (Conv1D)            │                   │            │                   │
├─────────────────────┼───────────────────┼────────────┼───────────────────┤
│ str3_harmonic_coll… │ (256, 13, 64)     │     16,448 │ str3_backbone_ac… │
│ (Conv1D)            │                   │            │                   │
├─────────────────────┼───────────────────┼────────────┼───────────────────┤
│ str4_harmonic_coll… │ (256, 13, 64)     │     16,448 │ str4_backbone_ac… │
│ (Conv1D)            │                   │            │                   │
├─────────────────────┼───────────────────┼────────────┼───────────────────┤
│ str5_harmonic_bn    │ (256, 12, 64)     │        256 │ str5_harmonic_co… │
│ (BatchNormalizatio… │                   │            │                   │
├─────────────────────┼───────────────────┼────────────┼───────────────────┤
│ str0_harmonic_bn    │ (256, 13, 64)     │        256 │ str0_harmonic_co… │
│ (BatchNormalizatio… │                   │            │                   │
├─────────────────────┼───────────────────┼────────────┼───────────────────┤
│ str1_harmonic_bn    │ (256, 13, 64)     │        256 │ str1_harmonic_co… │
│ (BatchNormalizatio… │                   │            │                   │
├─────────────────────┼───────────────────┼────────────┼───────────────────┤
│ str2_harmonic_bn    │ (256, 13, 64)     │        256 │ str2_harmonic_co… │
│ (BatchNormalizatio… │                   │            │                   │
├─────────────────────┼───────────────────┼────────────┼───────────────────┤
│ str3_harmonic_bn    │ (256, 13, 64)     │        256 │ str3_harmonic_co… │
│ (BatchNormalizatio… │                   │            │                   │
├─────────────────────┼───────────────────┼────────────┼───────────────────┤
│ str4_harmonic_bn    │ (256, 13, 64)     │        256 │ str4_harmonic_co… │
│ (BatchNormalizatio… │                   │            │                   │
├─────────────────────┼───────────────────┼────────────┼───────────────────┤
│ str5_harmonic_act   │ (256, 12, 64)     │          0 │ str5_harmonic_bn… │
│ (LeakyReLU)         │                   │            │                   │
├─────────────────────┼───────────────────┼────────────┼───────────────────┤
│ str0_harmonic_act   │ (256, 13, 64)     │          0 │ str0_harmonic_bn… │
│ (LeakyReLU)         │                   │            │                   │
├─────────────────────┼───────────────────┼────────────┼───────────────────┤
│ str1_harmonic_act   │ (256, 13, 64)     │          0 │ str1_harmonic_bn… │
│ (LeakyReLU)         │                   │            │                   │
├─────────────────────┼───────────────────┼────────────┼───────────────────┤
│ str2_harmonic_act   │ (256, 13, 64)     │          0 │ str2_harmonic_bn… │
│ (LeakyReLU)         │                   │            │                   │
├─────────────────────┼───────────────────┼────────────┼───────────────────┤
│ str3_harmonic_act   │ (256, 13, 64)     │          0 │ str3_harmonic_bn… │
│ (LeakyReLU)         │                   │            │                   │
├─────────────────────┼───────────────────┼────────────┼───────────────────┤
│ str4_harmonic_act   │ (256, 13, 64)     │          0 │ str4_harmonic_bn… │
│ (LeakyReLU)         │                   │            │                   │
├─────────────────────┼───────────────────┼────────────┼───────────────────┤
│ str5_harmonic_drop  │ (256, 12, 64)     │          0 │ str5_harmonic_ac… │
│ (SpatialDropout1D)  │                   │            │                   │
├─────────────────────┼───────────────────┼────────────┼───────────────────┤
│ str0_harmonic_drop  │ (256, 13, 64)     │          0 │ str0_harmonic_ac… │
│ (SpatialDropout1D)  │                   │            │                   │
├─────────────────────┼───────────────────┼────────────┼───────────────────┤
│ str1_harmonic_drop  │ (256, 13, 64)     │          0 │ str1_harmonic_ac… │
│ (SpatialDropout1D)  │                   │            │                   │
├─────────────────────┼───────────────────┼────────────┼───────────────────┤
│ str2_harmonic_drop  │ (256, 13, 64)     │          0 │ str2_harmonic_ac… │
│ (SpatialDropout1D)  │                   │            │                   │
├─────────────────────┼───────────────────┼────────────┼───────────────────┤
│ str3_harmonic_drop  │ (256, 13, 64)     │          0 │ str3_harmonic_ac… │
│ (SpatialDropout1D)  │                   │            │                   │
├─────────────────────┼───────────────────┼────────────┼───────────────────┤
│ str4_harmonic_drop  │ (256, 13, 64)     │          0 │ str4_harmonic_ac… │
│ (SpatialDropout1D)  │                   │            │                   │
├─────────────────────┼───────────────────┼────────────┼───────────────────┤
│ str5_hollow_suppre… │ (256, 12, 64)     │          0 │ str5_harmonic_dr… │
│ (Lambda)            │                   │            │                   │
├─────────────────────┼───────────────────┼────────────┼───────────────────┤
│ str0_hollow_suppre… │ (256, 13, 64)     │          0 │ str0_harmonic_dr… │
│ (Lambda)            │                   │            │                   │
├─────────────────────┼───────────────────┼────────────┼───────────────────┤
│ str1_hollow_suppre… │ (256, 13, 64)     │          0 │ str1_harmonic_dr… │
│ (Lambda)            │                   │            │                   │
├─────────────────────┼───────────────────┼────────────┼───────────────────┤
│ str2_hollow_suppre… │ (256, 13, 64)     │          0 │ str2_harmonic_dr… │
│ (Lambda)            │                   │            │                   │
├─────────────────────┼───────────────────┼────────────┼───────────────────┤
│ str3_hollow_suppre… │ (256, 13, 64)     │          0 │ str3_harmonic_dr… │
│ (Lambda)            │                   │            │                   │
├─────────────────────┼───────────────────┼────────────┼───────────────────┤
│ str4_hollow_suppre… │ (256, 13, 64)     │          0 │ str4_harmonic_dr… │
│ (Lambda)            │                   │            │                   │
├─────────────────────┼───────────────────┼────────────┼───────────────────┤
│ str5_hollow_act     │ (256, 12, 64)     │          0 │ str5_hollow_supp… │
│ (LeakyReLU)         │                   │            │                   │
├─────────────────────┼───────────────────┼────────────┼───────────────────┤
│ str0_hollow_act     │ (256, 13, 64)     │          0 │ str0_hollow_supp… │
│ (LeakyReLU)         │                   │            │                   │
├─────────────────────┼───────────────────┼────────────┼───────────────────┤
│ str1_hollow_act     │ (256, 13, 64)     │          0 │ str1_hollow_supp… │
│ (LeakyReLU)         │                   │            │                   │
├─────────────────────┼───────────────────┼────────────┼───────────────────┤
│ str2_hollow_act     │ (256, 13, 64)     │          0 │ str2_hollow_supp… │
│ (LeakyReLU)         │                   │            │                   │
├─────────────────────┼───────────────────┼────────────┼───────────────────┤
│ str3_hollow_act     │ (256, 13, 64)     │          0 │ str3_hollow_supp… │
│ (LeakyReLU)         │                   │            │                   │
├─────────────────────┼───────────────────┼────────────┼───────────────────┤
│ str4_hollow_act     │ (256, 13, 64)     │          0 │ str4_hollow_supp… │
│ (LeakyReLU)         │                   │            │                   │
├─────────────────────┼───────────────────┼────────────┼───────────────────┤
│ str5_post_suppress… │ (256, 12, 64)     │      4,160 │ str5_hollow_act[… │
│ (Conv1D)            │                   │            │                   │
├─────────────────────┼───────────────────┼────────────┼───────────────────┤
│ str0_post_suppress… │ (256, 13, 64)     │      4,160 │ str0_hollow_act[… │
│ (Conv1D)            │                   │            │                   │
├─────────────────────┼───────────────────┼────────────┼───────────────────┤
│ str1_post_suppress… │ (256, 13, 64)     │      4,160 │ str1_hollow_act[… │
│ (Conv1D)            │                   │            │                   │
├─────────────────────┼───────────────────┼────────────┼───────────────────┤
│ str2_post_suppress… │ (256, 13, 64)     │      4,160 │ str2_hollow_act[… │
│ (Conv1D)            │                   │            │                   │
├─────────────────────┼───────────────────┼────────────┼───────────────────┤
│ str3_post_suppress… │ (256, 13, 64)     │      4,160 │ str3_hollow_act[… │
│ (Conv1D)            │                   │            │                   │
├─────────────────────┼───────────────────┼────────────┼───────────────────┤
│ str4_post_suppress… │ (256, 13, 64)     │      4,160 │ str4_hollow_act[… │
│ (Conv1D)            │                   │            │                   │
├─────────────────────┼───────────────────┼────────────┼───────────────────┤
│ str5_post_suppress… │ (256, 12, 64)     │        256 │ str5_post_suppre… │
│ (BatchNormalizatio… │                   │            │                   │
├─────────────────────┼───────────────────┼────────────┼───────────────────┤
│ str0_post_suppress… │ (256, 13, 64)     │        256 │ str0_post_suppre… │
│ (BatchNormalizatio… │                   │            │                   │
├─────────────────────┼───────────────────┼────────────┼───────────────────┤
│ str1_post_suppress… │ (256, 13, 64)     │        256 │ str1_post_suppre… │
│ (BatchNormalizatio… │                   │            │                   │
├─────────────────────┼───────────────────┼────────────┼───────────────────┤
│ str2_post_suppress… │ (256, 13, 64)     │        256 │ str2_post_suppre… │
│ (BatchNormalizatio… │                   │            │                   │
├─────────────────────┼───────────────────┼────────────┼───────────────────┤
│ str3_post_suppress… │ (256, 13, 64)     │        256 │ str3_post_suppre… │
│ (BatchNormalizatio… │                   │            │                   │
├─────────────────────┼───────────────────┼────────────┼───────────────────┤
│ str4_post_suppress… │ (256, 13, 64)     │        256 │ str4_post_suppre… │
│ (BatchNormalizatio… │                   │            │                   │
├─────────────────────┼───────────────────┼────────────┼───────────────────┤
│ str5_post_suppress… │ (256, 12, 64)     │          0 │ str5_post_suppre… │
│ (LeakyReLU)         │                   │            │                   │
├─────────────────────┼───────────────────┼────────────┼───────────────────┤
│ str0_post_suppress… │ (256, 13, 64)     │          0 │ str0_post_suppre… │
│ (LeakyReLU)         │                   │            │                   │
├─────────────────────┼───────────────────┼────────────┼───────────────────┤
│ str1_post_suppress… │ (256, 13, 64)     │          0 │ str1_post_suppre… │
│ (LeakyReLU)         │                   │            │                   │
├─────────────────────┼───────────────────┼────────────┼───────────────────┤
│ str2_post_suppress… │ (256, 13, 64)     │          0 │ str2_post_suppre… │
│ (LeakyReLU)         │                   │            │                   │
├─────────────────────┼───────────────────┼────────────┼───────────────────┤
│ str3_post_suppress… │ (256, 13, 64)     │          0 │ str3_post_suppre… │
│ (LeakyReLU)         │                   │            │                   │
├─────────────────────┼───────────────────┼────────────┼───────────────────┤
│ str4_post_suppress… │ (256, 13, 64)     │          0 │ str4_post_suppre… │
│ (LeakyReLU)         │                   │            │                   │
├─────────────────────┼───────────────────┼────────────┼───────────────────┤
│ chord_block_pad_st… │ (256, 13, 64)     │          0 │ str5_post_suppre… │
│ (ZeroPadding1D)     │                   │            │                   │
├─────────────────────┼───────────────────┼────────────┼───────────────────┤
│ chord_block_expand… │ (256, 1, 13, 64)  │          0 │ str0_post_suppre… │
│ (Reshape)           │                   │            │                   │
├─────────────────────┼───────────────────┼────────────┼───────────────────┤
│ chord_block_expand… │ (256, 1, 13, 64)  │          0 │ str1_post_suppre… │
│ (Reshape)           │                   │            │                   │
├─────────────────────┼───────────────────┼────────────┼───────────────────┤
│ chord_block_expand… │ (256, 1, 13, 64)  │          0 │ str2_post_suppre… │
│ (Reshape)           │                   │            │                   │
├─────────────────────┼───────────────────┼────────────┼───────────────────┤
│ chord_block_expand… │ (256, 1, 13, 64)  │          0 │ str3_post_suppre… │
│ (Reshape)           │                   │            │                   │
├─────────────────────┼───────────────────┼────────────┼───────────────────┤
│ chord_block_expand… │ (256, 1, 13, 64)  │          0 │ str4_post_suppre… │
│ (Reshape)           │                   │            │                   │
├─────────────────────┼───────────────────┼────────────┼───────────────────┤
│ chord_block_expand… │ (256, 1, 13, 64)  │          0 │ chord_block_pad_… │
│ (Reshape)           │                   │            │                   │
├─────────────────────┼───────────────────┼────────────┼───────────────────┤
│ chord_block_stack_… │ (256, 6, 13, 64)  │          0 │ chord_block_expa… │
│ (Concatenate)       │                   │            │ chord_block_expa… │
│                     │                   │            │ chord_block_expa… │
│                     │                   │            │ chord_block_expa… │
│                     │                   │            │ chord_block_expa… │
│                     │                   │            │ chord_block_expa… │
├─────────────────────┼───────────────────┼────────────┼───────────────────┤
│ chord_block_conv1   │ (256, 6, 13, 64)  │     49,216 │ chord_block_stac… │
│ (Conv2D)            │                   │            │                   │
├─────────────────────┼───────────────────┼────────────┼───────────────────┤
│ chord_block_bn1     │ (256, 6, 13, 64)  │        256 │ chord_block_conv… │
│ (BatchNormalizatio… │                   │            │                   │
├─────────────────────┼───────────────────┼────────────┼───────────────────┤
│ chord_block_act1    │ (256, 6, 13, 64)  │          0 │ chord_block_bn1[… │
│ (ELU)               │                   │            │                   │
├─────────────────────┼───────────────────┼────────────┼───────────────────┤
│ chord_block_conv2   │ (256, 6, 13, 64)  │     49,216 │ chord_block_act1… │
│ (Conv2D)            │                   │            │                   │
├─────────────────────┼───────────────────┼────────────┼───────────────────┤
│ chord_block_bn2     │ (256, 6, 13, 64)  │        256 │ chord_block_conv… │
│ (BatchNormalizatio… │                   │            │                   │
├─────────────────────┼───────────────────┼────────────┼───────────────────┤
│ chord_block_act2    │ (256, 6, 13, 64)  │          0 │ chord_block_bn2[… │
│ (LeakyReLU)         │                   │            │                   │
├─────────────────────┼───────────────────┼────────────┼───────────────────┤
│ chord_block_res_c1… │ (256, 6, 13, 64)  │          0 │ chord_block_act2… │
│ (Add)               │                   │            │ chord_block_act1… │
├─────────────────────┼───────────────────┼────────────┼───────────────────┤
│ chord_block_drop1   │ (256, 6, 13, 64)  │          0 │ chord_block_res_… │
│ (SpatialDropout2D)  │                   │            │                   │
├─────────────────────┼───────────────────┼────────────┼───────────────────┤
│ chord_block_slice_… │ (256, 13, 64)     │          0 │ chord_block_drop… │
│ (Lambda)            │                   │            │                   │
├─────────────────────┼───────────────────┼────────────┼───────────────────┤
│ chord_block_slice_… │ (256, 13, 64)     │          0 │ chord_block_drop… │
│ (Lambda)            │                   │            │                   │
├─────────────────────┼───────────────────┼────────────┼───────────────────┤
│ chord_block_slice_… │ (256, 13, 64)     │          0 │ chord_block_drop… │
│ (Lambda)            │                   │            │                   │
├─────────────────────┼───────────────────┼────────────┼───────────────────┤
│ chord_block_slice_… │ (256, 13, 64)     │          0 │ chord_block_drop… │
│ (Lambda)            │                   │            │                   │
├─────────────────────┼───────────────────┼────────────┼───────────────────┤
│ chord_block_slice_… │ (256, 13, 64)     │          0 │ chord_block_drop… │
│ (Lambda)            │                   │            │                   │
├─────────────────────┼───────────────────┼────────────┼───────────────────┤
│ chord_block_slice_… │ (256, 13, 64)     │          0 │ chord_block_drop… │
│ (Lambda)            │                   │            │                   │
├─────────────────────┼───────────────────┼────────────┼───────────────────┤
│ chord_block_ln_str0 │ (256, 13, 64)     │        128 │ chord_block_slic… │
│ (LayerNormalizatio… │                   │            │                   │
├─────────────────────┼───────────────────┼────────────┼───────────────────┤
│ chord_block_ln_str1 │ (256, 13, 64)     │        128 │ chord_block_slic… │
│ (LayerNormalizatio… │                   │            │                   │
├─────────────────────┼───────────────────┼────────────┼───────────────────┤
│ chord_block_ln_str2 │ (256, 13, 64)     │        128 │ chord_block_slic… │
│ (LayerNormalizatio… │                   │            │                   │
├─────────────────────┼───────────────────┼────────────┼───────────────────┤
│ chord_block_ln_str3 │ (256, 13, 64)     │        128 │ chord_block_slic… │
│ (LayerNormalizatio… │                   │            │                   │
├─────────────────────┼───────────────────┼────────────┼───────────────────┤
│ chord_block_ln_str4 │ (256, 13, 64)     │        128 │ chord_block_slic… │
│ (LayerNormalizatio… │                   │            │                   │
├─────────────────────┼───────────────────┼────────────┼───────────────────┤
│ chord_block_ln_str5 │ (256, 13, 64)     │        128 │ chord_block_slic… │
│ (LayerNormalizatio… │                   │            │                   │
├─────────────────────┼───────────────────┼────────────┼───────────────────┤
│ chord_block_act_st… │ (256, 13, 64)     │          0 │ chord_block_ln_s… │
│ (LeakyReLU)         │                   │            │                   │
├─────────────────────┼───────────────────┼────────────┼───────────────────┤
│ chord_block_act_st… │ (256, 13, 64)     │          0 │ chord_block_ln_s… │
│ (LeakyReLU)         │                   │            │                   │
├─────────────────────┼───────────────────┼────────────┼───────────────────┤
│ chord_block_act_st… │ (256, 13, 64)     │          0 │ chord_block_ln_s… │
│ (LeakyReLU)         │                   │            │                   │
├─────────────────────┼───────────────────┼────────────┼───────────────────┤
│ chord_block_act_st… │ (256, 13, 64)     │          0 │ chord_block_ln_s… │
│ (LeakyReLU)         │                   │            │                   │
├─────────────────────┼───────────────────┼────────────┼───────────────────┤
│ chord_block_act_st… │ (256, 13, 64)     │          0 │ chord_block_ln_s… │
│ (LeakyReLU)         │                   │            │                   │
├─────────────────────┼───────────────────┼────────────┼───────────────────┤
│ chord_block_act_st… │ (256, 13, 64)     │          0 │ chord_block_ln_s… │
│ (LeakyReLU)         │                   │            │                   │
├─────────────────────┼───────────────────┼────────────┼───────────────────┤
│ chord_block_drop_s… │ (256, 13, 64)     │          0 │ chord_block_act_… │
│ (Dropout)           │                   │            │                   │
├─────────────────────┼───────────────────┼────────────┼───────────────────┤
│ chord_block_drop_s… │ (256, 13, 64)     │          0 │ chord_block_act_… │
│ (Dropout)           │                   │            │                   │
├─────────────────────┼───────────────────┼────────────┼───────────────────┤
│ chord_block_drop_s… │ (256, 13, 64)     │          0 │ chord_block_act_… │
│ (Dropout)           │                   │            │                   │
├─────────────────────┼───────────────────┼────────────┼───────────────────┤
│ chord_block_drop_s… │ (256, 13, 64)     │          0 │ chord_block_act_… │
│ (Dropout)           │                   │            │                   │
├─────────────────────┼───────────────────┼────────────┼───────────────────┤
│ chord_block_drop_s… │ (256, 13, 64)     │          0 │ chord_block_act_… │
│ (Dropout)           │                   │            │                   │
├─────────────────────┼───────────────────┼────────────┼───────────────────┤
│ chord_block_drop_s… │ (256, 13, 64)     │          0 │ chord_block_act_… │
│ (Dropout)           │                   │            │                   │
├─────────────────────┼───────────────────┼────────────┼───────────────────┤
│ chord_block_fretlo… │ (256, 13, 1)      │         65 │ chord_block_drop… │
│ (Dense)             │                   │            │                   │
├─────────────────────┼───────────────────┼────────────┼───────────────────┤
│ chord_block_fretlo… │ (256, 13, 1)      │         65 │ chord_block_drop… │
│ (Dense)             │                   │            │                   │
├─────────────────────┼───────────────────┼────────────┼───────────────────┤
│ chord_block_fretlo… │ (256, 13, 1)      │         65 │ chord_block_drop… │
│ (Dense)             │                   │            │                   │
├─────────────────────┼───────────────────┼────────────┼───────────────────┤
│ chord_block_fretlo… │ (256, 13, 1)      │         65 │ chord_block_drop… │
│ (Dense)             │                   │            │                   │
├─────────────────────┼───────────────────┼────────────┼───────────────────┤
│ chord_block_fretlo… │ (256, 13, 1)      │         65 │ chord_block_drop… │
│ (Dense)             │                   │            │                   │
├─────────────────────┼───────────────────┼────────────┼───────────────────┤
│ chord_block_fretlo… │ (256, 13, 1)      │         65 │ chord_block_drop… │
│ (Dense)             │                   │            │                   │
├─────────────────────┼───────────────────┼────────────┼───────────────────┤
│ chord_block_flatte… │ (256, 13)         │          0 │ chord_block_fret… │
│ (Flatten)           │                   │            │                   │
├─────────────────────┼───────────────────┼────────────┼───────────────────┤
│ chord_block_flatte… │ (256, 13)         │          0 │ chord_block_fret… │
│ (Flatten)           │                   │            │                   │
├─────────────────────┼───────────────────┼────────────┼───────────────────┤
│ chord_block_flatte… │ (256, 13)         │          0 │ chord_block_fret… │
│ (Flatten)           │                   │            │                   │
├─────────────────────┼───────────────────┼────────────┼───────────────────┤
│ chord_block_flatte… │ (256, 13)         │          0 │ chord_block_fret… │
│ (Flatten)           │                   │            │                   │
├─────────────────────┼───────────────────┼────────────┼───────────────────┤
│ chord_block_flatte… │ (256, 13)         │          0 │ chord_block_fret… │
│ (Flatten)           │                   │            │                   │
├─────────────────────┼───────────────────┼────────────┼───────────────────┤
│ chord_block_flatte… │ (256, 13)         │          0 │ chord_block_fret… │
│ (Flatten)           │                   │            │                   │
├─────────────────────┼───────────────────┼────────────┼───────────────────┤
│ chord_block_append… │ (256, 14)         │          0 │ chord_block_flat… │
│ (Lambda)            │                   │            │                   │
├─────────────────────┼───────────────────┼────────────┼───────────────────┤
│ chord_block_append… │ (256, 14)         │          0 │ chord_block_flat… │
│ (Lambda)            │                   │            │                   │
├─────────────────────┼───────────────────┼────────────┼───────────────────┤
│ chord_block_append… │ (256, 14)         │          0 │ chord_block_flat… │
│ (Lambda)            │                   │            │                   │
├─────────────────────┼───────────────────┼────────────┼───────────────────┤
│ chord_block_append… │ (256, 14)         │          0 │ chord_block_flat… │
│ (Lambda)            │                   │            │                   │
├─────────────────────┼───────────────────┼────────────┼───────────────────┤
│ chord_block_append… │ (256, 14)         │          0 │ chord_block_flat… │
│ (Lambda)            │                   │            │                   │
├─────────────────────┼───────────────────┼────────────┼───────────────────┤
│ chord_block_append… │ (256, 14)         │          0 │ chord_block_flat… │
│ (Lambda)            │                   │            │                   │
├─────────────────────┼───────────────────┼────────────┼───────────────────┤
│ chord_block_softma… │ (256, 14)         │          0 │ chord_block_appe… │
│ (Softmax)           │                   │            │                   │
├─────────────────────┼───────────────────┼────────────┼───────────────────┤
│ chord_block_softma… │ (256, 14)         │          0 │ chord_block_appe… │
│ (Softmax)           │                   │            │                   │
├─────────────────────┼───────────────────┼────────────┼───────────────────┤
│ chord_block_softma… │ (256, 14)         │          0 │ chord_block_appe… │
│ (Softmax)           │                   │            │                   │
├─────────────────────┼───────────────────┼────────────┼───────────────────┤
│ chord_block_softma… │ (256, 14)         │          0 │ chord_block_appe… │
│ (Softmax)           │                   │            │                   │
├─────────────────────┼───────────────────┼────────────┼───────────────────┤
│ chord_block_softma… │ (256, 14)         │          0 │ chord_block_appe… │
│ (Softmax)           │                   │            │                   │
├─────────────────────┼───────────────────┼────────────┼───────────────────┤
│ chord_block_softma… │ (256, 14)         │          0 │ chord_block_appe… │
│ (Softmax)           │                   │            │                   │
├─────────────────────┼───────────────────┼────────────┼───────────────────┤
│ chord_block_strip_… │ (256, 13)         │          0 │ chord_block_soft… │
│ (Lambda)            │                   │            │                   │
├─────────────────────┼───────────────────┼────────────┼───────────────────┤
│ chord_block_strip_… │ (256, 13)         │          0 │ chord_block_soft… │
│ (Lambda)            │                   │            │                   │
├─────────────────────┼───────────────────┼────────────┼───────────────────┤
│ chord_block_strip_… │ (256, 13)         │          0 │ chord_block_soft… │
│ (Lambda)            │                   │            │                   │
├─────────────────────┼───────────────────┼────────────┼───────────────────┤
│ chord_block_strip_… │ (256, 13)         │          0 │ chord_block_soft… │
│ (Lambda)            │                   │            │                   │
├─────────────────────┼───────────────────┼────────────┼───────────────────┤
│ chord_block_strip_… │ (256, 13)         │          0 │ chord_block_soft… │
│ (Lambda)            │                   │            │                   │
├─────────────────────┼───────────────────┼────────────┼───────────────────┤
│ chord_block_strip_… │ (256, 13)         │          0 │ chord_block_soft… │
│ (Lambda)            │                   │            │                   │
├─────────────────────┼───────────────────┼────────────┼───────────────────┤
│ string_combined     │ (256, 78)         │          0 │ chord_block_stri… │
│ (Concatenate)       │                   │            │ chord_block_stri… │
│                     │                   │            │ chord_block_stri… │
│                     │                   │            │ chord_block_stri… │
│                     │                   │            │ chord_block_stri… │
│                     │                   │            │ chord_block_stri… │
├─────────────────────┼───────────────────┼────────────┼───────────────────┤
│ reshape (Reshape)   │ (256, 6, 13)      │          0 │ string_combined[… │
├─────────────────────┼───────────────────┼────────────┼───────────────────┤
│ sparse_guitar_outp… │ (256, 37)         │          0 │ reshape[0][0]     │
│ (SparseGuitarOutpu… │                   │            │                   │
└─────────────────────┴───────────────────┴────────────┴───────────────────┘
 Total params: 742,126 (2.83 MB)
 Trainable params: 738,782 (2.82 MB)
 Non-trainable params: 3,344 (13.06 KB)
