…
│ (BatchNormalizatio… │ 16)               │            │                   │
├─────────────────────┼───────────────────┼────────────┼───────────────────┤
│ leaky_re_lu_15      │ (512, 148, 32,    │          0 │ batch_normalizat… │
│ (LeakyReLU)         │ 16)               │            │                   │
├─────────────────────┼───────────────────┼────────────┼───────────────────┤
│ spatial_dropout2d_1 │ (512, 148, 32,    │          0 │ leaky_re_lu_15[0… │
│ (SpatialDropout2D)  │ 16)               │            │                   │
├─────────────────────┼───────────────────┼────────────┼───────────────────┤
│ reshape_3 (Reshape) │ (512, 148, 512)   │          0 │ spatial_dropout2… │
├─────────────────────┼───────────────────┼────────────┼───────────────────┤
│ normalization_1     │ (512, 148, 512)   │      1,025 │ reshape_3[0][0]   │
│ (Normalization)     │                   │            │                   │
├─────────────────────┼───────────────────┼────────────┼───────────────────┤
│ conv1d_14 (Conv1D)  │ (512, 148, 32)    │    114,720 │ normalization_1[… │
├─────────────────────┼───────────────────┼────────────┼───────────────────┤
│ batch_normalizatio… │ (512, 148, 32)    │        128 │ conv1d_14[0][0]   │
│ (BatchNormalizatio… │                   │            │                   │
├─────────────────────┼───────────────────┼────────────┼───────────────────┤
│ leaky_re_lu_16      │ (512, 148, 32)    │          0 │ batch_normalizat… │
│ (LeakyReLU)         │                   │            │                   │
├─────────────────────┼───────────────────┼────────────┼───────────────────┤
│ spatial_dropout1d_8 │ (512, 148, 32)    │          0 │ leaky_re_lu_16[0… │
│ (SpatialDropout1D)  │                   │            │                   │
├─────────────────────┼───────────────────┼────────────┼───────────────────┤
│ conv1d_15 (Conv1D)  │ (512, 148, 64)    │     14,400 │ spatial_dropout1… │
├─────────────────────┼───────────────────┼────────────┼───────────────────┤
│ batch_normalizatio… │ (512, 148, 64)    │        256 │ conv1d_15[0][0]   │
│ (BatchNormalizatio… │                   │            │                   │
├─────────────────────┼───────────────────┼────────────┼───────────────────┤
│ leaky_re_lu_17      │ (512, 148, 64)    │          0 │ batch_normalizat… │
│ (LeakyReLU)         │                   │            │                   │
├─────────────────────┼───────────────────┼────────────┼───────────────────┤
│ max_pooling1d_7     │ (512, 74, 64)     │          0 │ leaky_re_lu_17[0… │
│ (MaxPooling1D)      │                   │            │                   │
├─────────────────────┼───────────────────┼────────────┼───────────────────┤
│ spatial_dropout1d_9 │ (512, 74, 64)     │          0 │ max_pooling1d_7[… │
│ (SpatialDropout1D)  │                   │            │                   │
├─────────────────────┼───────────────────┼────────────┼───────────────────┤
│ lambda_6 (Lambda)   │ (512, 10, 64)     │          0 │ spatial_dropout1… │
├─────────────────────┼───────────────────┼────────────┼───────────────────┤
│ lambda_7 (Lambda)   │ (512, 9, 64)      │          0 │ spatial_dropout1… │
├─────────────────────┼───────────────────┼────────────┼───────────────────┤
│ lambda_8 (Lambda)   │ (512, 9, 64)      │          0 │ spatial_dropout1… │
├─────────────────────┼───────────────────┼────────────┼───────────────────┤
│ lambda_9 (Lambda)   │ (512, 7, 64)      │          0 │ spatial_dropout1… │
├─────────────────────┼───────────────────┼────────────┼───────────────────┤
│ lambda_10 (Lambda)  │ (512, 9, 64)      │          0 │ spatial_dropout1… │
├─────────────────────┼───────────────────┼────────────┼───────────────────┤
│ lambda_11 (Lambda)  │ (512, 24, 64)     │          0 │ spatial_dropout1… │
├─────────────────────┼───────────────────┼────────────┼───────────────────┤
│ conv1d_16 (Conv1D)  │ (512, 10, 128)    │     57,472 │ lambda_6[0][0]    │
├─────────────────────┼───────────────────┼────────────┼───────────────────┤
│ conv1d_18 (Conv1D)  │ (512, 9, 128)     │     57,472 │ lambda_7[0][0]    │
├─────────────────────┼───────────────────┼────────────┼───────────────────┤
│ conv1d_20 (Conv1D)  │ (512, 9, 128)     │     57,472 │ lambda_8[0][0]    │
├─────────────────────┼───────────────────┼────────────┼───────────────────┤
│ conv1d_22 (Conv1D)  │ (512, 7, 128)     │     57,472 │ lambda_9[0][0]    │
├─────────────────────┼───────────────────┼────────────┼───────────────────┤
│ conv1d_24 (Conv1D)  │ (512, 9, 128)     │     57,472 │ lambda_10[0][0]   │
├─────────────────────┼───────────────────┼────────────┼───────────────────┤
│ conv1d_26 (Conv1D)  │ (512, 24, 128)    │     57,472 │ lambda_11[0][0]   │
├─────────────────────┼───────────────────┼────────────┼───────────────────┤
│ batch_normalizatio… │ (512, 10, 128)    │        512 │ conv1d_16[0][0]   │
│ (BatchNormalizatio… │                   │            │                   │
├─────────────────────┼───────────────────┼────────────┼───────────────────┤
│ batch_normalizatio… │ (512, 9, 128)     │        512 │ conv1d_18[0][0]   │
│ (BatchNormalizatio… │                   │            │                   │
├─────────────────────┼───────────────────┼────────────┼───────────────────┤
│ batch_normalizatio… │ (512, 9, 128)     │        512 │ conv1d_20[0][0]   │
│ (BatchNormalizatio… │                   │            │                   │
├─────────────────────┼───────────────────┼────────────┼───────────────────┤
│ batch_normalizatio… │ (512, 7, 128)     │        512 │ conv1d_22[0][0]   │
│ (BatchNormalizatio… │                   │            │                   │
├─────────────────────┼───────────────────┼────────────┼───────────────────┤
│ batch_normalizatio… │ (512, 9, 128)     │        512 │ conv1d_24[0][0]   │
│ (BatchNormalizatio… │                   │            │                   │
├─────────────────────┼───────────────────┼────────────┼───────────────────┤
│ batch_normalizatio… │ (512, 24, 128)    │        512 │ conv1d_26[0][0]   │
│ (BatchNormalizatio… │                   │            │                   │
├─────────────────────┼───────────────────┼────────────┼───────────────────┤
│ leaky_re_lu_18      │ (512, 10, 128)    │          0 │ batch_normalizat… │
│ (LeakyReLU)         │                   │            │                   │
├─────────────────────┼───────────────────┼────────────┼───────────────────┤
│ leaky_re_lu_20      │ (512, 9, 128)     │          0 │ batch_normalizat… │
│ (LeakyReLU)         │                   │            │                   │
├─────────────────────┼───────────────────┼────────────┼───────────────────┤
│ leaky_re_lu_22      │ (512, 9, 128)     │          0 │ batch_normalizat… │
│ (LeakyReLU)         │                   │            │                   │
├─────────────────────┼───────────────────┼────────────┼───────────────────┤
│ leaky_re_lu_24      │ (512, 7, 128)     │          0 │ batch_normalizat… │
│ (LeakyReLU)         │                   │            │                   │
├─────────────────────┼───────────────────┼────────────┼───────────────────┤
│ leaky_re_lu_26      │ (512, 9, 128)     │          0 │ batch_normalizat… │
│ (LeakyReLU)         │                   │            │                   │
├─────────────────────┼───────────────────┼────────────┼───────────────────┤
│ leaky_re_lu_28      │ (512, 24, 128)    │          0 │ batch_normalizat… │
│ (LeakyReLU)         │                   │            │                   │
├─────────────────────┼───────────────────┼────────────┼───────────────────┤
│ max_pooling1d_8     │ (512, 2, 128)     │          0 │ leaky_re_lu_18[0… │
│ (MaxPooling1D)      │                   │            │                   │
├─────────────────────┼───────────────────┼────────────┼───────────────────┤
│ max_pooling1d_9     │ (512, 2, 128)     │          0 │ leaky_re_lu_20[0… │
│ (MaxPooling1D)      │                   │            │                   │
├─────────────────────┼───────────────────┼────────────┼───────────────────┤
│ max_pooling1d_10    │ (512, 2, 128)     │          0 │ leaky_re_lu_22[0… │
│ (MaxPooling1D)      │                   │            │                   │
├─────────────────────┼───────────────────┼────────────┼───────────────────┤
│ max_pooling1d_11    │ (512, 1, 128)     │          0 │ leaky_re_lu_24[0… │
│ (MaxPooling1D)      │                   │            │                   │
├─────────────────────┼───────────────────┼────────────┼───────────────────┤
│ max_pooling1d_12    │ (512, 2, 128)     │          0 │ leaky_re_lu_26[0… │
│ (MaxPooling1D)      │                   │            │                   │
├─────────────────────┼───────────────────┼────────────┼───────────────────┤
│ max_pooling1d_13    │ (512, 6, 128)     │          0 │ leaky_re_lu_28[0… │
│ (MaxPooling1D)      │                   │            │                   │
├─────────────────────┼───────────────────┼────────────┼───────────────────┤
│ spatial_dropout1d_… │ (512, 2, 128)     │          0 │ max_pooling1d_8[… │
│ (SpatialDropout1D)  │                   │            │                   │
├─────────────────────┼───────────────────┼────────────┼───────────────────┤
│ spatial_dropout1d_… │ (512, 2, 128)     │          0 │ max_pooling1d_9[… │
│ (SpatialDropout1D)  │                   │            │                   │
├─────────────────────┼───────────────────┼────────────┼───────────────────┤
│ spatial_dropout1d_… │ (512, 2, 128)     │          0 │ max_pooling1d_10… │
│ (SpatialDropout1D)  │                   │            │                   │
├─────────────────────┼───────────────────┼────────────┼───────────────────┤
│ spatial_dropout1d_… │ (512, 1, 128)     │          0 │ max_pooling1d_11… │
│ (SpatialDropout1D)  │                   │            │                   │
├─────────────────────┼───────────────────┼────────────┼───────────────────┤
│ spatial_dropout1d_… │ (512, 2, 128)     │          0 │ max_pooling1d_12… │
│ (SpatialDropout1D)  │                   │            │                   │
├─────────────────────┼───────────────────┼────────────┼───────────────────┤
│ spatial_dropout1d_… │ (512, 6, 128)     │          0 │ max_pooling1d_13… │
│ (SpatialDropout1D)  │                   │            │                   │
├─────────────────────┼───────────────────┼────────────┼───────────────────┤
│ conv1d_17 (Conv1D)  │ (512, 2, 256)     │    229,632 │ spatial_dropout1… │
├─────────────────────┼───────────────────┼────────────┼───────────────────┤
│ conv1d_19 (Conv1D)  │ (512, 2, 256)     │    229,632 │ spatial_dropout1… │
├─────────────────────┼───────────────────┼────────────┼───────────────────┤
│ conv1d_21 (Conv1D)  │ (512, 2, 256)     │    229,632 │ spatial_dropout1… │
├─────────────────────┼───────────────────┼────────────┼───────────────────┤
│ conv1d_23 (Conv1D)  │ (512, 1, 256)     │    229,632 │ spatial_dropout1… │
├─────────────────────┼───────────────────┼────────────┼───────────────────┤
│ conv1d_25 (Conv1D)  │ (512, 2, 256)     │    229,632 │ spatial_dropout1… │
├─────────────────────┼───────────────────┼────────────┼───────────────────┤
│ conv1d_27 (Conv1D)  │ (512, 6, 256)     │    229,632 │ spatial_dropout1… │
├─────────────────────┼───────────────────┼────────────┼───────────────────┤
│ batch_normalizatio… │ (512, 2, 256)     │      1,024 │ conv1d_17[0][0]   │
│ (BatchNormalizatio… │                   │            │                   │
├─────────────────────┼───────────────────┼────────────┼───────────────────┤
│ batch_normalizatio… │ (512, 2, 256)     │      1,024 │ conv1d_19[0][0]   │
│ (BatchNormalizatio… │                   │            │                   │
├─────────────────────┼───────────────────┼────────────┼───────────────────┤
│ batch_normalizatio… │ (512, 2, 256)     │      1,024 │ conv1d_21[0][0]   │
│ (BatchNormalizatio… │                   │            │                   │
├─────────────────────┼───────────────────┼────────────┼───────────────────┤
│ batch_normalizatio… │ (512, 1, 256)     │      1,024 │ conv1d_23[0][0]   │
│ (BatchNormalizatio… │                   │            │                   │
├─────────────────────┼───────────────────┼────────────┼───────────────────┤
│ batch_normalizatio… │ (512, 2, 256)     │      1,024 │ conv1d_25[0][0]   │
│ (BatchNormalizatio… │                   │            │                   │
├─────────────────────┼───────────────────┼────────────┼───────────────────┤
│ batch_normalizatio… │ (512, 6, 256)     │      1,024 │ conv1d_27[0][0]   │
│ (BatchNormalizatio… │                   │            │                   │
├─────────────────────┼───────────────────┼────────────┼───────────────────┤
│ leaky_re_lu_19      │ (512, 2, 256)     │          0 │ batch_normalizat… │
│ (LeakyReLU)         │                   │            │                   │
├─────────────────────┼───────────────────┼────────────┼───────────────────┤
│ leaky_re_lu_21      │ (512, 2, 256)     │          0 │ batch_normalizat… │
│ (LeakyReLU)         │                   │            │                   │
├─────────────────────┼───────────────────┼────────────┼───────────────────┤
│ leaky_re_lu_23      │ (512, 2, 256)     │          0 │ batch_normalizat… │
│ (LeakyReLU)         │                   │            │                   │
├─────────────────────┼───────────────────┼────────────┼───────────────────┤
│ leaky_re_lu_25      │ (512, 1, 256)     │          0 │ batch_normalizat… │
│ (LeakyReLU)         │                   │            │                   │
├─────────────────────┼───────────────────┼────────────┼───────────────────┤
│ leaky_re_lu_27      │ (512, 2, 256)     │          0 │ batch_normalizat… │
│ (LeakyReLU)         │                   │            │                   │
├─────────────────────┼───────────────────┼────────────┼───────────────────┤
│ leaky_re_lu_29      │ (512, 6, 256)     │          0 │ batch_normalizat… │
│ (LeakyReLU)         │                   │            │                   │
├─────────────────────┼───────────────────┼────────────┼───────────────────┤
│ flatten_6 (Flatten) │ (512, 512)        │          0 │ leaky_re_lu_19[0… │
├─────────────────────┼───────────────────┼────────────┼───────────────────┤
│ flatten_7 (Flatten) │ (512, 512)        │          0 │ leaky_re_lu_21[0… │
├─────────────────────┼───────────────────┼────────────┼───────────────────┤
│ flatten_8 (Flatten) │ (512, 512)        │          0 │ leaky_re_lu_23[0… │
├─────────────────────┼───────────────────┼────────────┼───────────────────┤
│ flatten_9 (Flatten) │ (512, 256)        │          0 │ leaky_re_lu_25[0… │
├─────────────────────┼───────────────────┼────────────┼───────────────────┤
│ flatten_10          │ (512, 512)        │          0 │ leaky_re_lu_27[0… │
│ (Flatten)           │                   │            │                   │
├─────────────────────┼───────────────────┼────────────┼───────────────────┤
│ flatten_11          │ (512, 1536)       │          0 │ leaky_re_lu_29[0… │
│ (Flatten)           │                   │            │                   │
├─────────────────────┼───────────────────┼────────────┼───────────────────┤
│ concatenate_1       │ (512, 3840)       │          0 │ flatten_6[0][0],  │
│ (Concatenate)       │                   │            │ flatten_7[0][0],  │
│                     │                   │            │ flatten_8[0][0],  │
│                     │                   │            │ flatten_9[0][0],  │
│                     │                   │            │ flatten_10[0][0], │
│                     │                   │            │ flatten_11[0][0]  │
├─────────────────────┼───────────────────┼────────────┼───────────────────┤
│ dropout_1 (Dropout) │ (512, 3840)       │          0 │ concatenate_1[0]… │
├─────────────────────┼───────────────────┼────────────┼───────────────────┤
│ dense_1 (Dense)     │ (512, 44)         │    169,004 │ dropout_1[0][0]   │
└─────────────────────┴───────────────────┴────────────┴───────────────────┘
 Total params: 2,031,709 (7.75 MB)
 Trainable params: 2,025,852 (7.73 MB)
 Non-trainable params: 5,857 (22.88 KB)
