…
┃ Layer (type)        ┃ Output Shape      ┃    Param # ┃ Connected to      ┃
┡━━━━━━━━━━━━━━━━━━━━━╇━━━━━━━━━━━━━━━━━━━╇━━━━━━━━━━━━╇━━━━━━━━━━━━━━━━━━━┩
│ input_layer         │ (256, 148, 256,   │          0 │ -                 │
│ (InputLayer)        │ 1)                │            │                   │
├─────────────────────┼───────────────────┼────────────┼───────────────────┤
│ reshape (Reshape)   │ (256, 148, 256,   │          0 │ input_layer[0][0] │
│                     │ 1)                │            │                   │
├─────────────────────┼───────────────────┼────────────┼───────────────────┤
│ conv2d (Conv2D)     │ (256, 148, 64, 8) │        136 │ reshape[0][0]     │
├─────────────────────┼───────────────────┼────────────┼───────────────────┤
│ batch_normalization │ (256, 148, 64, 8) │         32 │ conv2d[0][0]      │
│ (BatchNormalizatio… │                   │            │                   │
├─────────────────────┼───────────────────┼────────────┼───────────────────┤
│ leaky_re_lu         │ (256, 148, 64, 8) │          0 │ batch_normalizat… │
│ (LeakyReLU)         │                   │            │                   │
├─────────────────────┼───────────────────┼────────────┼───────────────────┤
│ spatial_dropout2d   │ (256, 148, 64, 8) │          0 │ leaky_re_lu[0][0] │
│ (SpatialDropout2D)  │                   │            │                   │
├─────────────────────┼───────────────────┼────────────┼───────────────────┤
│ reshape_1 (Reshape) │ (256, 148, 512)   │          0 │ spatial_dropout2… │
├─────────────────────┼───────────────────┼────────────┼───────────────────┤
│ conv1d (Conv1D)     │ (256, 148, 32)    │    114,720 │ reshape_1[0][0]   │
├─────────────────────┼───────────────────┼────────────┼───────────────────┤
│ batch_normalizatio… │ (256, 148, 32)    │        128 │ conv1d[0][0]      │
│ (BatchNormalizatio… │                   │            │                   │
├─────────────────────┼───────────────────┼────────────┼───────────────────┤
│ leaky_re_lu_1       │ (256, 148, 32)    │          0 │ batch_normalizat… │
│ (LeakyReLU)         │                   │            │                   │
├─────────────────────┼───────────────────┼────────────┼───────────────────┤
│ spatial_dropout1d   │ (256, 148, 32)    │          0 │ leaky_re_lu_1[0]… │
│ (SpatialDropout1D)  │                   │            │                   │
├─────────────────────┼───────────────────┼────────────┼───────────────────┤
│ conv1d_1 (Conv1D)   │ (256, 148, 64)    │     14,400 │ spatial_dropout1… │
├─────────────────────┼───────────────────┼────────────┼───────────────────┤
│ batch_normalizatio… │ (256, 148, 64)    │        256 │ conv1d_1[0][0]    │
│ (BatchNormalizatio… │                   │            │                   │
├─────────────────────┼───────────────────┼────────────┼───────────────────┤
│ leaky_re_lu_2       │ (256, 148, 64)    │          0 │ batch_normalizat… │
│ (LeakyReLU)         │                   │            │                   │
├─────────────────────┼───────────────────┼────────────┼───────────────────┤
│ max_pooling1d       │ (256, 74, 64)     │          0 │ leaky_re_lu_2[0]… │
│ (MaxPooling1D)      │                   │            │                   │
├─────────────────────┼───────────────────┼────────────┼───────────────────┤
│ spatial_dropout1d_1 │ (256, 74, 64)     │          0 │ max_pooling1d[0]… │
│ (SpatialDropout1D)  │                   │            │                   │
├─────────────────────┼───────────────────┼────────────┼───────────────────┤
│ multi_head_attenti… │ (256, 74, 64)     │     16,640 │ spatial_dropout1… │
│ (MultiHeadAttentio… │                   │            │ spatial_dropout1… │
├─────────────────────┼───────────────────┼────────────┼───────────────────┤
│ add (Add)           │ (256, 74, 64)     │          0 │ spatial_dropout1… │
│                     │                   │            │ multi_head_atten… │
├─────────────────────┼───────────────────┼────────────┼───────────────────┤
│ layer_normalization │ (256, 74, 64)     │        128 │ add[0][0]         │
│ (LayerNormalizatio… │                   │            │                   │
├─────────────────────┼───────────────────┼────────────┼───────────────────┤
│ dense (Dense)       │ (256, 74, 128)    │      8,320 │ layer_normalizat… │
├─────────────────────┼───────────────────┼────────────┼───────────────────┤
│ dropout_1 (Dropout) │ (256, 74, 128)    │          0 │ dense[0][0]       │
├─────────────────────┼───────────────────┼────────────┼───────────────────┤
│ dense_1 (Dense)     │ (256, 74, 64)     │      8,256 │ dropout_1[0][0]   │
├─────────────────────┼───────────────────┼────────────┼───────────────────┤
│ add_1 (Add)         │ (256, 74, 64)     │          0 │ layer_normalizat… │
│                     │                   │            │ dense_1[0][0]     │
├─────────────────────┼───────────────────┼────────────┼───────────────────┤
│ layer_normalizatio… │ (256, 74, 64)     │        128 │ add_1[0][0]       │
│ (LayerNormalizatio… │                   │            │                   │
├─────────────────────┼───────────────────┼────────────┼───────────────────┤
│ lambda (Lambda)     │ (256, 26, 64)     │          0 │ layer_normalizat… │
├─────────────────────┼───────────────────┼────────────┼───────────────────┤
│ lambda_1 (Lambda)   │ (256, 26, 64)     │          0 │ layer_normalizat… │
├─────────────────────┼───────────────────┼────────────┼───────────────────┤
│ lambda_2 (Lambda)   │ (256, 26, 64)     │          0 │ layer_normalizat… │
├─────────────────────┼───────────────────┼────────────┼───────────────────┤
│ lambda_3 (Lambda)   │ (256, 26, 64)     │          0 │ layer_normalizat… │
├─────────────────────┼───────────────────┼────────────┼───────────────────┤
│ lambda_4 (Lambda)   │ (256, 26, 64)     │          0 │ layer_normalizat… │
├─────────────────────┼───────────────────┼────────────┼───────────────────┤
│ lambda_5 (Lambda)   │ (256, 25, 64)     │          0 │ layer_normalizat… │
├─────────────────────┼───────────────────┼────────────┼───────────────────┤
│ conv1d_2 (Conv1D)   │ (256, 26, 64)     │      4,160 │ lambda[0][0]      │
├─────────────────────┼───────────────────┼────────────┼───────────────────┤
│ conv1d_9 (Conv1D)   │ (256, 26, 64)     │      4,160 │ lambda_1[0][0]    │
├─────────────────────┼───────────────────┼────────────┼───────────────────┤
│ conv1d_16 (Conv1D)  │ (256, 26, 64)     │      4,160 │ lambda_2[0][0]    │
├─────────────────────┼───────────────────┼────────────┼───────────────────┤
│ conv1d_23 (Conv1D)  │ (256, 26, 64)     │      4,160 │ lambda_3[0][0]    │
├─────────────────────┼───────────────────┼────────────┼───────────────────┤
│ conv1d_30 (Conv1D)  │ (256, 26, 64)     │      4,160 │ lambda_4[0][0]    │
├─────────────────────┼───────────────────┼────────────┼───────────────────┤
│ conv1d_37 (Conv1D)  │ (256, 25, 64)     │      4,160 │ lambda_5[0][0]    │
├─────────────────────┼───────────────────┼────────────┼───────────────────┤
│ batch_normalizatio… │ (256, 26, 64)     │        256 │ conv1d_2[0][0]    │
│ (BatchNormalizatio… │                   │            │                   │
├─────────────────────┼───────────────────┼────────────┼───────────────────┤
│ batch_normalizatio… │ (256, 26, 64)     │        256 │ conv1d_9[0][0]    │
│ (BatchNormalizatio… │                   │            │                   │
├─────────────────────┼───────────────────┼────────────┼───────────────────┤
│ batch_normalizatio… │ (256, 26, 64)     │        256 │ conv1d_16[0][0]   │
│ (BatchNormalizatio… │                   │            │                   │
├─────────────────────┼───────────────────┼────────────┼───────────────────┤
│ batch_normalizatio… │ (256, 26, 64)     │        256 │ conv1d_23[0][0]   │
│ (BatchNormalizatio… │                   │            │                   │
├─────────────────────┼───────────────────┼────────────┼───────────────────┤
│ batch_normalizatio… │ (256, 26, 64)     │        256 │ conv1d_30[0][0]   │
│ (BatchNormalizatio… │                   │            │                   │
├─────────────────────┼───────────────────┼────────────┼───────────────────┤
│ batch_normalizatio… │ (256, 25, 64)     │        256 │ conv1d_37[0][0]   │
│ (BatchNormalizatio… │                   │            │                   │
├─────────────────────┼───────────────────┼────────────┼───────────────────┤
│ leaky_re_lu_3       │ (256, 26, 64)     │          0 │ batch_normalizat… │
│ (LeakyReLU)         │                   │            │                   │
├─────────────────────┼───────────────────┼────────────┼───────────────────┤
│ leaky_re_lu_10      │ (256, 26, 64)     │          0 │ batch_normalizat… │
│ (LeakyReLU)         │                   │            │                   │
├─────────────────────┼───────────────────┼────────────┼───────────────────┤
│ leaky_re_lu_17      │ (256, 26, 64)     │          0 │ batch_normalizat… │
│ (LeakyReLU)         │                   │            │                   │
├─────────────────────┼───────────────────┼────────────┼───────────────────┤
│ leaky_re_lu_24      │ (256, 26, 64)     │          0 │ batch_normalizat… │
│ (LeakyReLU)         │                   │            │                   │
├─────────────────────┼───────────────────┼────────────┼───────────────────┤
│ leaky_re_lu_31      │ (256, 26, 64)     │          0 │ batch_normalizat… │
│ (LeakyReLU)         │                   │            │                   │
├─────────────────────┼───────────────────┼────────────┼───────────────────┤
│ leaky_re_lu_38      │ (256, 25, 64)     │          0 │ batch_normalizat… │
│ (LeakyReLU)         │                   │            │                   │
├─────────────────────┼───────────────────┼────────────┼───────────────────┤
│ conv1d_3 (Conv1D)   │ (256, 26, 16)     │      1,040 │ leaky_re_lu_3[0]… │
├─────────────────────┼───────────────────┼────────────┼───────────────────┤
│ conv1d_10 (Conv1D)  │ (256, 26, 16)     │      1,040 │ leaky_re_lu_10[0… │
├─────────────────────┼───────────────────┼────────────┼───────────────────┤
│ conv1d_17 (Conv1D)  │ (256, 26, 16)     │      1,040 │ leaky_re_lu_17[0… │
├─────────────────────┼───────────────────┼────────────┼───────────────────┤
│ conv1d_24 (Conv1D)  │ (256, 26, 16)     │      1,040 │ leaky_re_lu_24[0… │
├─────────────────────┼───────────────────┼────────────┼───────────────────┤
│ conv1d_31 (Conv1D)  │ (256, 26, 16)     │      1,040 │ leaky_re_lu_31[0… │
├─────────────────────┼───────────────────┼────────────┼───────────────────┤
│ conv1d_38 (Conv1D)  │ (256, 25, 16)     │      1,040 │ leaky_re_lu_38[0… │
├─────────────────────┼───────────────────┼────────────┼───────────────────┤
│ batch_normalizatio… │ (256, 26, 16)     │         64 │ conv1d_3[0][0]    │
│ (BatchNormalizatio… │                   │            │                   │
├─────────────────────┼───────────────────┼────────────┼───────────────────┤
│ batch_normalizatio… │ (256, 26, 16)     │         64 │ conv1d_10[0][0]   │
│ (BatchNormalizatio… │                   │            │                   │
├─────────────────────┼───────────────────┼────────────┼───────────────────┤
│ batch_normalizatio… │ (256, 26, 16)     │         64 │ conv1d_17[0][0]   │
│ (BatchNormalizatio… │                   │            │                   │
├─────────────────────┼───────────────────┼────────────┼───────────────────┤
│ batch_normalizatio… │ (256, 26, 16)     │         64 │ conv1d_24[0][0]   │
│ (BatchNormalizatio… │                   │            │                   │
├─────────────────────┼───────────────────┼────────────┼───────────────────┤
│ batch_normalizatio… │ (256, 26, 16)     │         64 │ conv1d_31[0][0]   │
│ (BatchNormalizatio… │                   │            │                   │
├─────────────────────┼───────────────────┼────────────┼───────────────────┤
│ batch_normalizatio… │ (256, 25, 16)     │         64 │ conv1d_38[0][0]   │
│ (BatchNormalizatio… │                   │            │                   │
├─────────────────────┼───────────────────┼────────────┼───────────────────┤
│ leaky_re_lu_4       │ (256, 26, 16)     │          0 │ batch_normalizat… │
│ (LeakyReLU)         │                   │            │                   │
├─────────────────────┼───────────────────┼────────────┼───────────────────┤
│ leaky_re_lu_11      │ (256, 26, 16)     │          0 │ batch_normalizat… │
│ (LeakyReLU)         │                   │            │                   │
├─────────────────────┼───────────────────┼────────────┼───────────────────┤
│ leaky_re_lu_18      │ (256, 26, 16)     │          0 │ batch_normalizat… │
│ (LeakyReLU)         │                   │            │                   │
├─────────────────────┼───────────────────┼────────────┼───────────────────┤
│ leaky_re_lu_25      │ (256, 26, 16)     │          0 │ batch_normalizat… │
│ (LeakyReLU)         │                   │            │                   │
├─────────────────────┼───────────────────┼────────────┼───────────────────┤
│ leaky_re_lu_32      │ (256, 26, 16)     │          0 │ batch_normalizat… │
│ (LeakyReLU)         │                   │            │                   │
├─────────────────────┼───────────────────┼────────────┼───────────────────┤
│ leaky_re_lu_39      │ (256, 25, 16)     │          0 │ batch_normalizat… │
│ (LeakyReLU)         │                   │            │                   │
├─────────────────────┼───────────────────┼────────────┼───────────────────┤
│ conv1d_4 (Conv1D)   │ (256, 26, 16)     │        784 │ leaky_re_lu_4[0]… │
├─────────────────────┼───────────────────┼────────────┼───────────────────┤
│ conv1d_11 (Conv1D)  │ (256, 26, 16)     │        784 │ leaky_re_lu_11[0… │
├─────────────────────┼───────────────────┼────────────┼───────────────────┤
│ conv1d_18 (Conv1D)  │ (256, 26, 16)     │        784 │ leaky_re_lu_18[0… │
├─────────────────────┼───────────────────┼────────────┼───────────────────┤
│ conv1d_25 (Conv1D)  │ (256, 26, 16)     │        784 │ leaky_re_lu_25[0… │
├─────────────────────┼───────────────────┼────────────┼───────────────────┤
│ conv1d_32 (Conv1D)  │ (256, 26, 16)     │        784 │ leaky_re_lu_32[0… │
├─────────────────────┼───────────────────┼────────────┼───────────────────┤
│ conv1d_39 (Conv1D)  │ (256, 25, 16)     │        784 │ leaky_re_lu_39[0… │
├─────────────────────┼───────────────────┼────────────┼───────────────────┤
│ batch_normalizatio… │ (256, 26, 16)     │         64 │ conv1d_4[0][0]    │
│ (BatchNormalizatio… │                   │            │                   │
├─────────────────────┼───────────────────┼────────────┼───────────────────┤
│ batch_normalizatio… │ (256, 26, 16)     │         64 │ conv1d_11[0][0]   │
│ (BatchNormalizatio… │                   │            │                   │
├─────────────────────┼───────────────────┼────────────┼───────────────────┤
│ batch_normalizatio… │ (256, 26, 16)     │         64 │ conv1d_18[0][0]   │
│ (BatchNormalizatio… │                   │            │                   │
├─────────────────────┼───────────────────┼────────────┼───────────────────┤
│ batch_normalizatio… │ (256, 26, 16)     │         64 │ conv1d_25[0][0]   │
│ (BatchNormalizatio… │                   │            │                   │
├─────────────────────┼───────────────────┼────────────┼───────────────────┤
│ batch_normalizatio… │ (256, 26, 16)     │         64 │ conv1d_32[0][0]   │
│ (BatchNormalizatio… │                   │            │                   │
├─────────────────────┼───────────────────┼────────────┼───────────────────┤
│ batch_normalizatio… │ (256, 25, 16)     │         64 │ conv1d_39[0][0]   │
│ (BatchNormalizatio… │                   │            │                   │
├─────────────────────┼───────────────────┼────────────┼───────────────────┤
│ leaky_re_lu_5       │ (256, 26, 16)     │          0 │ batch_normalizat… │
│ (LeakyReLU)         │                   │            │                   │
├─────────────────────┼───────────────────┼────────────┼───────────────────┤
│ leaky_re_lu_12      │ (256, 26, 16)     │          0 │ batch_normalizat… │
│ (LeakyReLU)         │                   │            │                   │
├─────────────────────┼───────────────────┼────────────┼───────────────────┤
│ leaky_re_lu_19      │ (256, 26, 16)     │          0 │ batch_normalizat… │
│ (LeakyReLU)         │                   │            │                   │
├─────────────────────┼───────────────────┼────────────┼───────────────────┤
│ leaky_re_lu_26      │ (256, 26, 16)     │          0 │ batch_normalizat… │
│ (LeakyReLU)         │                   │            │                   │
├─────────────────────┼───────────────────┼────────────┼───────────────────┤
│ leaky_re_lu_33      │ (256, 26, 16)     │          0 │ batch_normalizat… │
│ (LeakyReLU)         │                   │            │                   │
├─────────────────────┼───────────────────┼────────────┼───────────────────┤
│ leaky_re_lu_40      │ (256, 25, 16)     │          0 │ batch_normalizat… │
│ (LeakyReLU)         │                   │            │                   │
├─────────────────────┼───────────────────┼────────────┼───────────────────┤
│ conv1d_5 (Conv1D)   │ (256, 26, 64)     │      1,088 │ leaky_re_lu_5[0]… │
├─────────────────────┼───────────────────┼────────────┼───────────────────┤
│ conv1d_12 (Conv1D)  │ (256, 26, 64)     │      1,088 │ leaky_re_lu_12[0… │
├─────────────────────┼───────────────────┼────────────┼───────────────────┤
│ conv1d_19 (Conv1D)  │ (256, 26, 64)     │      1,088 │ leaky_re_lu_19[0… │
├─────────────────────┼───────────────────┼────────────┼───────────────────┤
│ conv1d_26 (Conv1D)  │ (256, 26, 64)     │      1,088 │ leaky_re_lu_26[0… │
├─────────────────────┼───────────────────┼────────────┼───────────────────┤
│ conv1d_33 (Conv1D)  │ (256, 26, 64)     │      1,088 │ leaky_re_lu_33[0… │
├─────────────────────┼───────────────────┼────────────┼───────────────────┤
│ conv1d_40 (Conv1D)  │ (256, 25, 64)     │      1,088 │ leaky_re_lu_40[0… │
├─────────────────────┼───────────────────┼────────────┼───────────────────┤
│ batch_normalizatio… │ (256, 26, 64)     │        256 │ conv1d_5[0][0]    │
│ (BatchNormalizatio… │                   │            │                   │
├─────────────────────┼───────────────────┼────────────┼───────────────────┤
│ batch_normalizatio… │ (256, 26, 64)     │        256 │ conv1d_12[0][0]   │
│ (BatchNormalizatio… │                   │            │                   │
├─────────────────────┼───────────────────┼────────────┼───────────────────┤
│ batch_normalizatio… │ (256, 26, 64)     │        256 │ conv1d_19[0][0]   │
│ (BatchNormalizatio… │                   │            │                   │
├─────────────────────┼───────────────────┼────────────┼───────────────────┤
│ batch_normalizatio… │ (256, 26, 64)     │        256 │ conv1d_26[0][0]   │
│ (BatchNormalizatio… │                   │            │                   │
├─────────────────────┼───────────────────┼────────────┼───────────────────┤
│ batch_normalizatio… │ (256, 26, 64)     │        256 │ conv1d_33[0][0]   │
│ (BatchNormalizatio… │                   │            │                   │
├─────────────────────┼───────────────────┼────────────┼───────────────────┤
│ batch_normalizatio… │ (256, 25, 64)     │        256 │ conv1d_40[0][0]   │
│ (BatchNormalizatio… │                   │            │                   │
├─────────────────────┼───────────────────┼────────────┼───────────────────┤
│ add_2 (Add)         │ (256, 26, 64)     │          0 │ batch_normalizat… │
│                     │                   │            │ leaky_re_lu_3[0]… │
├─────────────────────┼───────────────────┼────────────┼───────────────────┤
│ add_4 (Add)         │ (256, 26, 64)     │          0 │ batch_normalizat… │
│                     │                   │            │ leaky_re_lu_10[0… │
├─────────────────────┼───────────────────┼────────────┼───────────────────┤
│ add_6 (Add)         │ (256, 26, 64)     │          0 │ batch_normalizat… │
│                     │                   │            │ leaky_re_lu_17[0… │
├─────────────────────┼───────────────────┼────────────┼───────────────────┤
│ add_8 (Add)         │ (256, 26, 64)     │          0 │ batch_normalizat… │
│                     │                   │            │ leaky_re_lu_24[0… │
├─────────────────────┼───────────────────┼────────────┼───────────────────┤
│ add_10 (Add)        │ (256, 26, 64)     │          0 │ batch_normalizat… │
│                     │                   │            │ leaky_re_lu_31[0… │
├─────────────────────┼───────────────────┼────────────┼───────────────────┤
│ add_12 (Add)        │ (256, 25, 64)     │          0 │ batch_normalizat… │
│                     │                   │            │ leaky_re_lu_38[0… │
├─────────────────────┼───────────────────┼────────────┼───────────────────┤
│ leaky_re_lu_6       │ (256, 26, 64)     │          0 │ add_2[0][0]       │
│ (LeakyReLU)         │                   │            │                   │
├─────────────────────┼───────────────────┼────────────┼───────────────────┤
│ leaky_re_lu_13      │ (256, 26, 64)     │          0 │ add_4[0][0]       │
│ (LeakyReLU)         │                   │            │                   │
├─────────────────────┼───────────────────┼────────────┼───────────────────┤
│ leaky_re_lu_20      │ (256, 26, 64)     │          0 │ add_6[0][0]       │
│ (LeakyReLU)         │                   │            │                   │
├─────────────────────┼───────────────────┼────────────┼───────────────────┤
│ leaky_re_lu_27      │ (256, 26, 64)     │          0 │ add_8[0][0]       │
│ (LeakyReLU)         │                   │            │                   │
├─────────────────────┼───────────────────┼────────────┼───────────────────┤
│ leaky_re_lu_34      │ (256, 26, 64)     │          0 │ add_10[0][0]      │
│ (LeakyReLU)         │                   │            │                   │
├─────────────────────┼───────────────────┼────────────┼───────────────────┤
│ leaky_re_lu_41      │ (256, 25, 64)     │          0 │ add_12[0][0]      │
│ (LeakyReLU)         │                   │            │                   │
├─────────────────────┼───────────────────┼────────────┼───────────────────┤
│ conv1d_6 (Conv1D)   │ (256, 26, 16)     │      1,040 │ leaky_re_lu_6[0]… │
├─────────────────────┼───────────────────┼────────────┼───────────────────┤
│ conv1d_13 (Conv1D)  │ (256, 26, 16)     │      1,040 │ leaky_re_lu_13[0… │
├─────────────────────┼───────────────────┼────────────┼───────────────────┤
│ conv1d_20 (Conv1D)  │ (256, 26, 16)     │      1,040 │ leaky_re_lu_20[0… │
├─────────────────────┼───────────────────┼────────────┼───────────────────┤
│ conv1d_27 (Conv1D)  │ (256, 26, 16)     │      1,040 │ leaky_re_lu_27[0… │
├─────────────────────┼───────────────────┼────────────┼───────────────────┤
│ conv1d_34 (Conv1D)  │ (256, 26, 16)     │      1,040 │ leaky_re_lu_34[0… │
├─────────────────────┼───────────────────┼────────────┼───────────────────┤
│ conv1d_41 (Conv1D)  │ (256, 25, 16)     │      1,040 │ leaky_re_lu_41[0… │
├─────────────────────┼───────────────────┼────────────┼───────────────────┤
│ batch_normalizatio… │ (256, 26, 16)     │         64 │ conv1d_6[0][0]    │
│ (BatchNormalizatio… │                   │            │                   │
├─────────────────────┼───────────────────┼────────────┼───────────────────┤
│ batch_normalizatio… │ (256, 26, 16)     │         64 │ conv1d_13[0][0]   │
│ (BatchNormalizatio… │                   │            │                   │
├─────────────────────┼───────────────────┼────────────┼───────────────────┤
│ batch_normalizatio… │ (256, 26, 16)     │         64 │ conv1d_20[0][0]   │
│ (BatchNormalizatio… │                   │            │                   │
├─────────────────────┼───────────────────┼────────────┼───────────────────┤
│ batch_normalizatio… │ (256, 26, 16)     │         64 │ conv1d_27[0][0]   │
│ (BatchNormalizatio… │                   │            │                   │
├─────────────────────┼───────────────────┼────────────┼───────────────────┤
│ batch_normalizatio… │ (256, 26, 16)     │         64 │ conv1d_34[0][0]   │
│ (BatchNormalizatio… │                   │            │                   │
├─────────────────────┼───────────────────┼────────────┼───────────────────┤
│ batch_normalizatio… │ (256, 25, 16)     │         64 │ conv1d_41[0][0]   │
│ (BatchNormalizatio… │                   │            │                   │
├─────────────────────┼───────────────────┼────────────┼───────────────────┤
│ leaky_re_lu_7       │ (256, 26, 16)     │          0 │ batch_normalizat… │
│ (LeakyReLU)         │                   │            │                   │
├─────────────────────┼───────────────────┼────────────┼───────────────────┤
│ leaky_re_lu_14      │ (256, 26, 16)     │          0 │ batch_normalizat… │
│ (LeakyReLU)         │                   │            │                   │
├─────────────────────┼───────────────────┼────────────┼───────────────────┤
│ leaky_re_lu_21      │ (256, 26, 16)     │          0 │ batch_normalizat… │
│ (LeakyReLU)         │                   │            │                   │
├─────────────────────┼───────────────────┼────────────┼───────────────────┤
│ leaky_re_lu_28      │ (256, 26, 16)     │          0 │ batch_normalizat… │
│ (LeakyReLU)         │                   │            │                   │
├─────────────────────┼───────────────────┼────────────┼───────────────────┤
│ leaky_re_lu_35      │ (256, 26, 16)     │          0 │ batch_normalizat… │
│ (LeakyReLU)         │                   │            │                   │
├─────────────────────┼───────────────────┼────────────┼───────────────────┤
│ leaky_re_lu_42      │ (256, 25, 16)     │          0 │ batch_normalizat… │
│ (LeakyReLU)         │                   │            │                   │
├─────────────────────┼───────────────────┼────────────┼───────────────────┤
│ conv1d_7 (Conv1D)   │ (256, 26, 16)     │      1,296 │ leaky_re_lu_7[0]… │
├─────────────────────┼───────────────────┼────────────┼───────────────────┤
│ conv1d_14 (Conv1D)  │ (256, 26, 16)     │      1,296 │ leaky_re_lu_14[0… │
├─────────────────────┼───────────────────┼────────────┼───────────────────┤
│ conv1d_21 (Conv1D)  │ (256, 26, 16)     │      1,296 │ leaky_re_lu_21[0… │
├─────────────────────┼───────────────────┼────────────┼───────────────────┤
│ conv1d_28 (Conv1D)  │ (256, 26, 16)     │      1,296 │ leaky_re_lu_28[0… │
├─────────────────────┼───────────────────┼────────────┼───────────────────┤
│ conv1d_35 (Conv1D)  │ (256, 26, 16)     │      1,296 │ leaky_re_lu_35[0… │
├─────────────────────┼───────────────────┼────────────┼───────────────────┤
│ conv1d_42 (Conv1D)  │ (256, 25, 16)     │      1,296 │ leaky_re_lu_42[0… │
├─────────────────────┼───────────────────┼────────────┼───────────────────┤
│ batch_normalizatio… │ (256, 26, 16)     │         64 │ conv1d_7[0][0]    │
│ (BatchNormalizatio… │                   │            │                   │
├─────────────────────┼───────────────────┼────────────┼───────────────────┤
│ batch_normalizatio… │ (256, 26, 16)     │         64 │ conv1d_14[0][0]   │
│ (BatchNormalizatio… │                   │            │                   │
├─────────────────────┼───────────────────┼────────────┼───────────────────┤
│ batch_normalizatio… │ (256, 26, 16)     │         64 │ conv1d_21[0][0]   │
│ (BatchNormalizatio… │                   │            │                   │
├─────────────────────┼───────────────────┼────────────┼───────────────────┤
│ batch_normalizatio… │ (256, 26, 16)     │         64 │ conv1d_28[0][0]   │
│ (BatchNormalizatio… │                   │            │                   │
├─────────────────────┼───────────────────┼────────────┼───────────────────┤
│ batch_normalizatio… │ (256, 26, 16)     │         64 │ conv1d_35[0][0]   │
│ (BatchNormalizatio… │                   │            │                   │
├─────────────────────┼───────────────────┼────────────┼───────────────────┤
│ batch_normalizatio… │ (256, 25, 16)     │         64 │ conv1d_42[0][0]   │
│ (BatchNormalizatio… │                   │            │                   │
├─────────────────────┼───────────────────┼────────────┼───────────────────┤
│ leaky_re_lu_8       │ (256, 26, 16)     │          0 │ batch_normalizat… │
│ (LeakyReLU)         │                   │            │                   │
├─────────────────────┼───────────────────┼────────────┼───────────────────┤
│ leaky_re_lu_15      │ (256, 26, 16)     │          0 │ batch_normalizat… │
│ (LeakyReLU)         │                   │            │                   │
├─────────────────────┼───────────────────┼────────────┼───────────────────┤
│ leaky_re_lu_22      │ (256, 26, 16)     │          0 │ batch_normalizat… │
│ (LeakyReLU)         │                   │            │                   │
├─────────────────────┼───────────────────┼────────────┼───────────────────┤
│ leaky_re_lu_29      │ (256, 26, 16)     │          0 │ batch_normalizat… │
│ (LeakyReLU)         │                   │            │                   │
├─────────────────────┼───────────────────┼────────────┼───────────────────┤
│ leaky_re_lu_36      │ (256, 26, 16)     │          0 │ batch_normalizat… │
│ (LeakyReLU)         │                   │            │                   │
├─────────────────────┼───────────────────┼────────────┼───────────────────┤
│ leaky_re_lu_43      │ (256, 25, 16)     │          0 │ batch_normalizat… │
│ (LeakyReLU)         │                   │            │                   │
├─────────────────────┼───────────────────┼────────────┼───────────────────┤
│ conv1d_8 (Conv1D)   │ (256, 26, 64)     │      1,088 │ leaky_re_lu_8[0]… │
├─────────────────────┼───────────────────┼────────────┼───────────────────┤
│ conv1d_15 (Conv1D)  │ (256, 26, 64)     │      1,088 │ leaky_re_lu_15[0… │
├─────────────────────┼───────────────────┼────────────┼───────────────────┤
│ conv1d_22 (Conv1D)  │ (256, 26, 64)     │      1,088 │ leaky_re_lu_22[0… │
├─────────────────────┼───────────────────┼────────────┼───────────────────┤
│ conv1d_29 (Conv1D)  │ (256, 26, 64)     │      1,088 │ leaky_re_lu_29[0… │
├─────────────────────┼───────────────────┼────────────┼───────────────────┤
│ conv1d_36 (Conv1D)  │ (256, 26, 64)     │      1,088 │ leaky_re_lu_36[0… │
├─────────────────────┼───────────────────┼────────────┼───────────────────┤
│ conv1d_43 (Conv1D)  │ (256, 25, 64)     │      1,088 │ leaky_re_lu_43[0… │
├─────────────────────┼───────────────────┼────────────┼───────────────────┤
│ batch_normalizatio… │ (256, 26, 64)     │        256 │ conv1d_8[0][0]    │
│ (BatchNormalizatio… │                   │            │                   │
├─────────────────────┼───────────────────┼────────────┼───────────────────┤
│ batch_normalizatio… │ (256, 26, 64)     │        256 │ conv1d_15[0][0]   │
│ (BatchNormalizatio… │                   │            │                   │
├─────────────────────┼───────────────────┼────────────┼───────────────────┤
│ batch_normalizatio… │ (256, 26, 64)     │        256 │ conv1d_22[0][0]   │
│ (BatchNormalizatio… │                   │            │                   │
├─────────────────────┼───────────────────┼────────────┼───────────────────┤
│ batch_normalizatio… │ (256, 26, 64)     │        256 │ conv1d_29[0][0]   │
│ (BatchNormalizatio… │                   │            │                   │
├─────────────────────┼───────────────────┼────────────┼───────────────────┤
│ batch_normalizatio… │ (256, 26, 64)     │        256 │ conv1d_36[0][0]   │
│ (BatchNormalizatio… │                   │            │                   │
├─────────────────────┼───────────────────┼────────────┼───────────────────┤
│ batch_normalizatio… │ (256, 25, 64)     │        256 │ conv1d_43[0][0]   │
│ (BatchNormalizatio… │                   │            │                   │
├─────────────────────┼───────────────────┼────────────┼───────────────────┤
│ add_3 (Add)         │ (256, 26, 64)     │          0 │ batch_normalizat… │
│                     │                   │            │ leaky_re_lu_6[0]… │
├─────────────────────┼───────────────────┼────────────┼───────────────────┤
│ add_5 (Add)         │ (256, 26, 64)     │          0 │ batch_normalizat… │
│                     │                   │            │ leaky_re_lu_13[0… │
├─────────────────────┼───────────────────┼────────────┼───────────────────┤
│ add_7 (Add)         │ (256, 26, 64)     │          0 │ batch_normalizat… │
│                     │                   │            │ leaky_re_lu_20[0… │
├─────────────────────┼───────────────────┼────────────┼───────────────────┤
│ add_9 (Add)         │ (256, 26, 64)     │          0 │ batch_normalizat… │
│                     │                   │            │ leaky_re_lu_27[0… │
├─────────────────────┼───────────────────┼────────────┼───────────────────┤
│ add_11 (Add)        │ (256, 26, 64)     │          0 │ batch_normalizat… │
│                     │                   │            │ leaky_re_lu_34[0… │
├─────────────────────┼───────────────────┼────────────┼───────────────────┤
│ add_13 (Add)        │ (256, 25, 64)     │          0 │ batch_normalizat… │
│                     │                   │            │ leaky_re_lu_41[0… │
├─────────────────────┼───────────────────┼────────────┼───────────────────┤
│ leaky_re_lu_9       │ (256, 26, 64)     │          0 │ add_3[0][0]       │
│ (LeakyReLU)         │                   │            │                   │
├─────────────────────┼───────────────────┼────────────┼───────────────────┤
│ leaky_re_lu_16      │ (256, 26, 64)     │          0 │ add_5[0][0]       │
│ (LeakyReLU)         │                   │            │                   │
├─────────────────────┼───────────────────┼────────────┼───────────────────┤
│ leaky_re_lu_23      │ (256, 26, 64)     │          0 │ add_7[0][0]       │
│ (LeakyReLU)         │                   │            │                   │
├─────────────────────┼───────────────────┼────────────┼───────────────────┤
│ leaky_re_lu_30      │ (256, 26, 64)     │          0 │ add_9[0][0]       │
│ (LeakyReLU)         │                   │            │                   │
├─────────────────────┼───────────────────┼────────────┼───────────────────┤
│ leaky_re_lu_37      │ (256, 26, 64)     │          0 │ add_11[0][0]      │
│ (LeakyReLU)         │                   │            │                   │
├─────────────────────┼───────────────────┼────────────┼───────────────────┤
│ leaky_re_lu_44      │ (256, 25, 64)     │          0 │ add_13[0][0]      │
│ (LeakyReLU)         │                   │            │                   │
├─────────────────────┼───────────────────┼────────────┼───────────────────┤
│ spatial_dropout1d_2 │ (256, 26, 64)     │          0 │ leaky_re_lu_9[0]… │
│ (SpatialDropout1D)  │                   │            │                   │
├─────────────────────┼───────────────────┼────────────┼───────────────────┤
│ spatial_dropout1d_3 │ (256, 26, 64)     │          0 │ leaky_re_lu_16[0… │
│ (SpatialDropout1D)  │                   │            │                   │
├─────────────────────┼───────────────────┼────────────┼───────────────────┤
│ spatial_dropout1d_4 │ (256, 26, 64)     │          0 │ leaky_re_lu_23[0… │
│ (SpatialDropout1D)  │                   │            │                   │
├─────────────────────┼───────────────────┼────────────┼───────────────────┤
│ spatial_dropout1d_5 │ (256, 26, 64)     │          0 │ leaky_re_lu_30[0… │
│ (SpatialDropout1D)  │                   │            │                   │
├─────────────────────┼───────────────────┼────────────┼───────────────────┤
│ spatial_dropout1d_6 │ (256, 26, 64)     │          0 │ leaky_re_lu_37[0… │
│ (SpatialDropout1D)  │                   │            │                   │
├─────────────────────┼───────────────────┼────────────┼───────────────────┤
│ spatial_dropout1d_7 │ (256, 25, 64)     │          0 │ leaky_re_lu_44[0… │
│ (SpatialDropout1D)  │                   │            │                   │
├─────────────────────┼───────────────────┼────────────┼───────────────────┤
│ global_max_pooling… │ (256, 64)         │          0 │ spatial_dropout1… │
│ (GlobalMaxPooling1… │                   │            │                   │
├─────────────────────┼───────────────────┼────────────┼───────────────────┤
│ global_average_poo… │ (256, 64)         │          0 │ spatial_dropout1… │
│ (GlobalAveragePool… │                   │            │                   │
├─────────────────────┼───────────────────┼────────────┼───────────────────┤
│ global_max_pooling… │ (256, 64)         │          0 │ spatial_dropout1… │
│ (GlobalMaxPooling1… │                   │            │                   │
├─────────────────────┼───────────────────┼────────────┼───────────────────┤
│ global_average_poo… │ (256, 64)         │          0 │ spatial_dropout1… │
│ (GlobalAveragePool… │                   │            │                   │
├─────────────────────┼───────────────────┼────────────┼───────────────────┤
│ global_max_pooling… │ (256, 64)         │          0 │ spatial_dropout1… │
│ (GlobalMaxPooling1… │                   │            │                   │
├─────────────────────┼───────────────────┼────────────┼───────────────────┤
│ global_average_poo… │ (256, 64)         │          0 │ spatial_dropout1… │
│ (GlobalAveragePool… │                   │            │                   │
├─────────────────────┼───────────────────┼────────────┼───────────────────┤
│ global_max_pooling… │ (256, 64)         │          0 │ spatial_dropout1… │
│ (GlobalMaxPooling1… │                   │            │                   │
├─────────────────────┼───────────────────┼────────────┼───────────────────┤
│ global_average_poo… │ (256, 64)         │          0 │ spatial_dropout1… │
│ (GlobalAveragePool… │                   │            │                   │
├─────────────────────┼───────────────────┼────────────┼───────────────────┤
│ global_max_pooling… │ (256, 64)         │          0 │ spatial_dropout1… │
│ (GlobalMaxPooling1… │                   │            │                   │
├─────────────────────┼───────────────────┼────────────┼───────────────────┤
│ global_average_poo… │ (256, 64)         │          0 │ spatial_dropout1… │
│ (GlobalAveragePool… │                   │            │                   │
├─────────────────────┼───────────────────┼────────────┼───────────────────┤
│ global_max_pooling… │ (256, 64)         │          0 │ spatial_dropout1… │
│ (GlobalMaxPooling1… │                   │            │                   │
├─────────────────────┼───────────────────┼────────────┼───────────────────┤
│ global_average_poo… │ (256, 64)         │          0 │ spatial_dropout1… │
│ (GlobalAveragePool… │                   │            │                   │
├─────────────────────┼───────────────────┼────────────┼───────────────────┤
│ concatenate         │ (256, 128)        │          0 │ global_max_pooli… │
│ (Concatenate)       │                   │            │ global_average_p… │
├─────────────────────┼───────────────────┼────────────┼───────────────────┤
│ concatenate_1       │ (256, 128)        │          0 │ global_max_pooli… │
│ (Concatenate)       │                   │            │ global_average_p… │
├─────────────────────┼───────────────────┼────────────┼───────────────────┤
│ concatenate_2       │ (256, 128)        │          0 │ global_max_pooli… │
│ (Concatenate)       │                   │            │ global_average_p… │
├─────────────────────┼───────────────────┼────────────┼───────────────────┤
│ concatenate_3       │ (256, 128)        │          0 │ global_max_pooli… │
│ (Concatenate)       │                   │            │ global_average_p… │
├─────────────────────┼───────────────────┼────────────┼───────────────────┤
│ concatenate_4       │ (256, 128)        │          0 │ global_max_pooli… │
│ (Concatenate)       │                   │            │ global_average_p… │
├─────────────────────┼───────────────────┼────────────┼───────────────────┤
│ concatenate_5       │ (256, 128)        │          0 │ global_max_pooli… │
│ (Concatenate)       │                   │            │ global_average_p… │
├─────────────────────┼───────────────────┼────────────┼───────────────────┤
│ lambda_6 (Lambda)   │ (256, 6, 128)     │          0 │ concatenate[0][0… │
│                     │                   │            │ concatenate_1[0]… │
│                     │                   │            │ concatenate_2[0]… │
│                     │                   │            │ concatenate_3[0]… │
│                     │                   │            │ concatenate_4[0]… │
│                     │                   │            │ concatenate_5[0]… │
├─────────────────────┼───────────────────┼────────────┼───────────────────┤
│ reshape_2 (Reshape) │ (256, 6, 128, 1)  │          0 │ lambda_6[0][0]    │
├─────────────────────┼───────────────────┼────────────┼───────────────────┤
│ conv2d_1 (Conv2D)   │ (256, 6, 128, 64) │      1,408 │ reshape_2[0][0]   │
├─────────────────────┼───────────────────┼────────────┼───────────────────┤
│ batch_normalizatio… │ (256, 6, 128, 64) │        256 │ conv2d_1[0][0]    │
│ (BatchNormalizatio… │                   │            │                   │
├─────────────────────┼───────────────────┼────────────┼───────────────────┤
│ leaky_re_lu_45      │ (256, 6, 128, 64) │          0 │ batch_normalizat… │
│ (LeakyReLU)         │                   │            │                   │
├─────────────────────┼───────────────────┼────────────┼───────────────────┤
│ spatial_dropout2d_1 │ (256, 6, 128, 64) │          0 │ leaky_re_lu_45[0… │
│ (SpatialDropout2D)  │                   │            │                   │
├─────────────────────┼───────────────────┼────────────┼───────────────────┤
│ conv2d_2 (Conv2D)   │ (256, 6, 128, 32) │     18,464 │ spatial_dropout2… │
├─────────────────────┼───────────────────┼────────────┼───────────────────┤
│ batch_normalizatio… │ (256, 6, 128, 32) │        128 │ conv2d_2[0][0]    │
│ (BatchNormalizatio… │                   │            │                   │
├─────────────────────┼───────────────────┼────────────┼───────────────────┤
│ leaky_re_lu_46      │ (256, 6, 128, 32) │          0 │ batch_normalizat… │
│ (LeakyReLU)         │                   │            │                   │
├─────────────────────┼───────────────────┼────────────┼───────────────────┤
│ global_average_poo… │ (256, 32)         │          0 │ leaky_re_lu_46[0… │
│ (GlobalAveragePool… │                   │            │                   │
├─────────────────────┼───────────────────┼────────────┼───────────────────┤
│ global_max_pooling… │ (256, 32)         │          0 │ leaky_re_lu_46[0… │
│ (GlobalMaxPooling2… │                   │            │                   │
├─────────────────────┼───────────────────┼────────────┼───────────────────┤
│ concatenate_6       │ (256, 64)         │          0 │ global_average_p… │
│ (Concatenate)       │                   │            │ global_max_pooli… │
├─────────────────────┼───────────────────┼────────────┼───────────────────┤
│ dense_2 (Dense)     │ (256, 128)        │      8,320 │ concatenate_6[0]… │
├─────────────────────┼───────────────────┼────────────┼───────────────────┤
│ batch_normalizatio… │ (256, 128)        │        512 │ dense_2[0][0]     │
│ (BatchNormalizatio… │                   │            │                   │
├─────────────────────┼───────────────────┼────────────┼───────────────────┤
│ leaky_re_lu_47      │ (256, 128)        │          0 │ batch_normalizat… │
│ (LeakyReLU)         │                   │            │                   │
├─────────────────────┼───────────────────┼────────────┼───────────────────┤
│ dropout_2 (Dropout) │ (256, 128)        │          0 │ leaky_re_lu_47[0… │
├─────────────────────┼───────────────────┼────────────┼───────────────────┤
│ dense_3 (Dense)     │ (256, 44)         │      5,676 │ dropout_2[0][0]   │
└─────────────────────┴───────────────────┴────────────┴───────────────────┘
 Total params: 267,028 (1.02 MB)
 Trainable params: 263,300 (1.00 MB)
 Non-trainable params: 3,728 (14.56 KB)
