{"architecture":{"module":"keras.src.models.functional","class_name":"Functional","config":{"name":"sequential","trainable":true,"layers":[{"module":"keras.layers","class_name":"InputLayer","config":{"batch_shape":[null,312,1],"dtype":"float32","sparse":false,"ragged":false,"name":"input_layer"},"registered_name":null,"name":"input_layer","inbound_nodes":[]},{"module":"keras.layers","class_name":"Conv1D","config":{"name":"conv1d","trainable":true,"dtype":{"module":"keras","class_name":"DTypePolicy","config":{"name":"float32"},"registered_name":null},"filters":32,"kernel_size":[3],"strides":[1],"padding":"same","data_format":"channels_last","dilation_rate":[1],"groups":1,"activation":"relu","use_bias":true,"kernel_initializer":{"module":"keras.initializers","class_name":"GlorotUniform","config":{"seed":null},"registered_name":null},"bias_initializer":{"module":"keras.initializers","class_name":"Zeros","config":{},"registered_name":null},"kernel_regularizer":null,"bias_regularizer":null,"activity_regularizer":null,"kernel_constraint":null,"bias_constraint":null},"registered_name":null,"build_config":{"input_shape":[null,312,1]},"name":"conv1d","inbound_nodes":[{"args":[{"class_name":"__keras_tensor__","config":{"shape":[null,312,1],"dtype":"float32","keras_history":["input_layer",0,0]}}],"kwargs":{}}]},{"module":"keras.layers","class_name":"BatchNormalization","config":{"name":"batch_normalization","trainable":true,"dtype":{"module":"keras","class_name":"DTypePolicy","config":{"name":"float32"},"registered_name":null},"axis":-1,"momentum":0.99,"epsilon":0.001,"center":true,"scale":true,"beta_initializer":{"module":"keras.initializers","class_name":"Zeros","config":{},"registered_name":null},"gamma_initializer":{"module":"keras.initializers","class_name":"Ones","config":{},"registered_name":null},"moving_mean_initializer":{"module":"keras.initializers","class_name":"Zeros","config":{},"registered_name":null},"moving_variance_initializer":{"module":"keras.initializers","class_name":"Ones","config":{},"registered_name":null},"beta_regularizer":null,"gamma_regularizer":null,"beta_constraint":null,"gamma_constraint":null,"synchronized":false},"registered_name":null,"build_config":{"input_shape":[null,312,32]},"name":"batch_normalization","inbound_nodes":[{"args":[{"class_name":"__keras_tensor__","config":{"shape":[null,312,32],"dtype":"float32","keras_history":["conv1d",0,0]}}],"kwargs":{"mask":null}}]},{"module":"keras.layers","class_name":"MaxPooling1D","config":{"name":"max_pooling1d","trainable":true,"dtype":{"module":"keras","class_name":"DTypePolicy","config":{"name":"float32"},"registered_name":null},"pool_size":[2],"padding":"valid","strides":[2],"data_format":"channels_last"},"registered_name":null,"name":"max_pooling1d","inbound_nodes":[{"args":[{"class_name":"__keras_tensor__","config":{"shape":[null,312,32],"dtype":"float32","keras_history":["batch_normalization",0,0]}}],"kwargs":{}}]},{"module":"keras.layers","class_name":"Conv1D","config":{"name":"conv1d_1","trainable":true,"dtype":{"module":"keras","class_name":"DTypePolicy","config":{"name":"float32"},"registered_name":null},"filters":64,"kernel_size":[3],"strides":[1],"padding":"same","data_format":"channels_last","dilation_rate":[1],"groups":1,"activation":"relu","use_bias":true,"kernel_initializer":{"module":"keras.initializers","class_name":"GlorotUniform","config":{"seed":null},"registered_name":null},"bias_initializer":{"module":"keras.initializers","class_name":"Zeros","config":{},"registered_name":null},"kernel_regularizer":null,"bias_regularizer":null,"activity_regularizer":null,"kernel_constraint":null,"bias_constraint":null},"registered_name":null,"build_config":{"input_shape":[null,156,32]},"name":"conv1d_1","inbound_nodes":[{"args":[{"class_name":"__keras_tensor__","config":{"shape":[null,156,32],"dtype":"float32","keras_history":["max_pooling1d",0,0]}}],"kwargs":{}}]},{"module":"keras.layers","class_name":"BatchNormalization","config":{"name":"batch_normalization_1","trainable":true,"dtype":{"module":"keras","class_name":"DTypePolicy","config":{"name":"float32"},"registered_name":null},"axis":-1,"momentum":0.99,"epsilon":0.001,"center":true,"scale":true,"beta_initializer":{"module":"keras.initializers","class_name":"Zeros","config":{},"registered_name":null},"gamma_initializer":{"module":"keras.initializers","class_name":"Ones","config":{},"registered_name":null},"moving_mean_initializer":{"module":"keras.initializers","class_name":"Zeros","config":{},"registered_name":null},"moving_variance_initializer":{"module":"keras.initializers","class_name":"Ones","config":{},"registered_name":null},"beta_regularizer":null,"gamma_regularizer":null,"beta_constraint":null,"gamma_constraint":null,"synchronized":false},"registered_name":null,"build_config":{"input_shape":[null,156,64]},"name":"batch_normalization_1","inbound_nodes":[{"args":[{"class_name":"__keras_tensor__","config":{"shape":[null,156,64],"dtype":"float32","keras_history":["conv1d_1",0,0]}}],"kwargs":{"mask":null}}]},{"module":"keras.layers","class_name":"MaxPooling1D","config":{"name":"max_pooling1d_1","trainable":true,"dtype":{"module":"keras","class_name":"DTypePolicy","config":{"name":"float32"},"registered_name":null},"pool_size":[2],"padding":"valid","strides":[2],"data_format":"channels_last"},"registered_name":null,"name":"max_pooling1d_1","inbound_nodes":[{"args":[{"class_name":"__keras_tensor__","config":{"shape":[null,156,64],"dtype":"float32","keras_history":["batch_normalization_1",0,0]}}],"kwargs":{}}]},{"module":"keras.layers","class_name":"Conv1D","config":{"name":"conv1d_2","trainable":true,"dtype":{"module":"keras","class_name":"DTypePolicy","config":{"name":"float32"},"registered_name":null},"filters":128,"kernel_size":[3],"strides":[1],"padding":"same","data_format":"channels_last","dilation_rate":[1],"groups":1,"activation":"relu","use_bias":true,"kernel_initializer":{"module":"keras.initializers","class_name":"GlorotUniform","config":{"seed":null},"registered_name":null},"bias_initializer":{"module":"keras.initializers","class_name":"Zeros","config":{},"registered_name":null},"kernel_regularizer":null,"bias_regularizer":null,"activity_regularizer":null,"kernel_constraint":null,"bias_constraint":null},"registered_name":null,"build_config":{"input_shape":[null,78,64]},"name":"conv1d_2","inbound_nodes":[{"args":[{"class_name":"__keras_tensor__","config":{"shape":[null,78,64],"dtype":"float32","keras_history":["max_pooling1d_1",0,0]}}],"kwargs":{}}]},{"module":"keras.layers","class_name":"SpatialDropout1D","config":{"rate":0.3,"seed":null,"name":"spatial_dropout1d","dtype":"float32"},"registered_name":null,"name":"spatial_dropout1d","inbound_nodes":[{"args":[{"class_name":"__keras_tensor__","config":{"shape":[null,78,128],"dtype":"float32","keras_history":["conv1d_2",0,0]}}],"kwargs":{"training":false}}]},{"module":"keras.layers","class_name":"MaxPooling1D","config":{"name":"max_pooling1d_2","trainable":true,"dtype":{"module":"keras","class_name":"DTypePolicy","config":{"name":"float32"},"registered_name":null},"pool_size":[2],"padding":"valid","strides":[2],"data_format":"channels_last"},"registered_name":null,"name":"max_pooling1d_2","inbound_nodes":[{"args":[{"class_name":"__keras_tensor__","config":{"shape":[null,78,128],"dtype":"float32","keras_history":["spatial_dropout1d",0,0]}}],"kwargs":{}}]},{"module":"keras.layers","class_name":"GlobalAveragePooling1D","config":{"name":"global_average_pooling1d","trainable":true,"dtype":{"module":"keras","class_name":"DTypePolicy","config":{"name":"float32"},"registered_name":null},"data_format":"channels_last","keepdims":false},"registered_name":null,"name":"global_average_pooling1d","inbound_nodes":[{"args":[{"class_name":"__keras_tensor__","config":{"shape":[null,39,128],"dtype":"float32","keras_history":["max_pooling1d_2",0,0]}}],"kwargs":{"mask":null}}]},{"module":"keras.layers","class_name":"Dense","config":{"name":"dense","trainable":true,"dtype":{"module":"keras","class_name":"DTypePolicy","config":{"name":"float32"},"registered_name":null},"units":89,"activation":"sigmoid","use_bias":true,"kernel_initializer":{"module":"keras.initializers","class_name":"GlorotUniform","config":{"seed":null},"registered_name":null},"bias_initializer":{"module":"keras.initializers","class_name":"Zeros","config":{},"registered_name":null},"kernel_regularizer":null,"bias_regularizer":null,"kernel_constraint":null,"bias_constraint":null},"registered_name":null,"build_config":{"input_shape":[null,128]},"name":"dense","inbound_nodes":[{"args":[{"class_name":"__keras_tensor__","config":{"shape":[null,128],"dtype":"float32","keras_history":["global_average_pooling1d",0,0]}}],"kwargs":{}}]}],"input_layers":[["input_layer",0,0]],"output_layers":[["dense",0,0]]},"registered_name":"Functional","build_config":{"input_shape":null},"compile_config":{}},"image_data_format":"channels_last","input_shapes":[[312,1]],"output_shapes":[[89]],"tests":[{"inputs":[{"shape":[312,1],"values":["…","…"]}],"outputs":[{"shape":[89],"values":["…"]}]}],"trainable_params":{"conv1d":{"weights":["…"],"bias":["gUAEQYCg+T+eREVA7GknQZyRdkHOfUhB8dgKQdPMOkFuW31BzwD1QAAAAAB4AABBCy8EQVPGFEGJ+kRBpGJqQK9e+EABpD1AzCJAPkD8FUAjydhAAAAAAKe7A0F96ZVAX5yXQMRNrUAAAAAAaCY1QQAAAABN7iRB0KggQBSwwbs="]},"batch_normalization":{"moving_mean":["1uYiQNDWsD78B21B5lB1QakEwEH16rZC0pXFQ7tM/EIl8q9BvERnQQAAAAAYmUdAtOtcQe+N8EFw8F5CKDrfQ6I3p0GoUzhB1x/nO+G8ZkAp/ipAAAAAAIwunkEjrGBBclg2QZJOTUAAAAAAr8MRQgAAAAAYPvpAIV+QQTIAAAA="],"moving_variance":["jQFyQS8ryj5526ZF0fcERfgaJkUxcmVHIUOTSTWkIkhe5gZFbv4WRTIAAAD2T6dB8Ss7RYBhT0YqPuNGNhGbSfUD3UU+9TxFPQZGOlI0AETzPgFBMgAAAFR6oUXaz5xFZtcQRfoxXkMyAAAAR4dsRjIAAAAHjz1DldYERjIAAAA="],"beta":["W6QIPiKOiT7dLCk+GA+UPUZJJT63lTw+H3KiPv/fUz5UN/U9bYXTPaS1Mj8Piww+J5K8PeAwAD5/BE0+dIK+PlMlKT5C86094bO3O/ROpT1ZbZC7jpE4v6psFT7G4B8+Fr0OPr/y4jwZCTk/fRUoPqzqNj9VJrI9xX0TPmDsNL8="],"gamma":["Ip3ePvjp1j7QA3M/AlFEP3FrSj9TwE8/O256P0jAaj+7F3E/T4A9PwAAgD9RFQM/fcpaP2PMRz9UD3U/2cuBP25MfT8Sf1k/5ufvPuW/aT8ZzQk/AACAP+tFXz8mlos/1dRKPyMaOT8AAIA/sFh5PwAAgD88shM/cjd1P6rEgD8="]},"conv1d_1":{"weights":["…","…","…","…","…","…","…","…","…","…","…","…","…","…","…","…","…","…","…","…","…","…","…","…","…","…","…","…","…","…","…","…"],"bias":["…"]},"batch_normalization_1":{"moving_mean":["…"],"moving_variance":["…"],"beta":["…"],"gamma":["…"]},"conv1d_2":{"weights":["…","…","…","…","…","…","…","…","…","…","…","…","…","…","…","…","…","…","…","…","…","…","…","…","…","…","…","…","…","…","…","…","…","…","…","…","…","…","…","…","…","…","…","…","…","…","…","…","…","…","…","…","…","…","…","…","…","…","…","…","…","…","…","…","…","…","…","…","…","…","…","…","…","…","…","…","…","…","…","…","…","…","…","…","…","…","…","…","…","…","…","…","…","…","…","…","…","…","…","…","…","…","…","…","…","…","…","…","…","…","…","…","…","…","…","…","…","…","…","…","…","…","…","…","…","…","…","…"],"bias":["…"]},"dense":{"weights":["…","…","…","…","…","…","…","…","…","…","…","…","…","…","…","…","…","…","…","…","…","…","…","…","…","…","…","…","…","…","…","…","…","…","…","…","…","…","…","…","…","…","…","…","…","…","…","…","…","…","…","…","…","…","…","…","…","…","…","…"],"bias":["…"]}},"hash":"623047e8dfc5bbde3df1e6731546559487420420bb477b0fc799472d1bf54177"}